package/PikaNN/TinyMaix/tools/tflite/mbnet128_0.25_q.tflite (tflite, 590704 bytes, 28 tensors)

mobilenet_0.25_128/conv1/Conv2D i1 [8, 3, 3, 3]
00000000: d706 e2f0 f2e9 f5f3 1301 2c0d 1d1a 15ef
00000010: 15f1 7d68 4c7f 6e53 0f3f d6f8 4ac0 c75b
00000020: dfcd 37fc e86c ae9e 7fe4 a846 0fe9 4acd
00000030: c04a f6cb 280b 2a16 bf56 0b9f 46f6 c450
00000040: 0da4 7c04 815b edb6 32f5 d844 f0cb 32e8
00000050: e400 0000 0000 0000 0000 0000 0000 0000
00000060: 0000 0000 0000 0000 0000 0000 e4eb f355
00000070: 5318 2a7f 3ee6 e7f6 7529 fa54 4300 d7ff
00000080: 0926 ff05 d81f 1517 3b0b 1d5a 22f9 1d0f
00000090: 5c61 0c43 7f2a 0324 1a4b 1af2 2232 0fff
000000a0: 070c b6b3 b7ab b681 efef 2ec5 a6ca c7b6
000000b0: 8afe da0e e4d1 3add e521 fbee 2c00 0000
000000c0: 0000 0000 0000 0000 0000 0000 0000 0000
000000d0: 0000 0000 0000 0000
-41 6 -30 -16 -14 -23 -11 -13
19 1 44 13 29 26 21 -17
21 -15 125 104 76 127 110 83
15 63 -42 -8 74 -64 -57 91
-33 -51 55 -4 -24 108 -82 -98
127 -28 -88 70 15 -23 74 -51
-64 74 -10 -53 40 11 42 22
-65 86 11 -97 70 -10 -60 80
13 -92 124 4 -127 91 -19 -74
50 -11 -40 68 -16 -53 50 -24
-28 0 0 0 0 0 0 0
0 0 0 0 0 0 0 0
0 0 0 0 0 0 0 0
0 0 0 0 -28 -21 -13 85
83 24 42 127 62 -26 -25 -10
117 41 -6 84 67 0 -41 -1
9 38 -1 5 -40 31 21 23
59 11 29 90 34 -7 29 15
92 97 12 67 127 42 3 36
26 75 26 -14 34 50 15 -1
7 12 -74 -77 -73 -85 -74 -127
-17 -17 46 -59 -90 -54 -57 -74
-118 -2 -38 14 -28 -47 58 -35
-27 33 -5 -18 44 0 0 0
0 0 0 0 0 0 0 0
0 0 0 0 0 0 0 0
0 0 0 0 0 0 0 0

mobilenet_0.25_128/conv_dw_1_bn/FusedBatchNormV3;mobilenet_0.25_128/conv_dw_1/depthwise i1 [1, 3, 3, 8]
00000000: f8f8 0a75 3e06 f1d4 8112 7f7e 2b05 fd93
00000010: 07f6 c87f 09fd fdcb 071b 0172 8104 1181
00000020: d57f 5e4f f981 7f88 0fe6 db24 0921 f89b
00000030: 02ed f34b f905 f7a7 00f6 de13 0011 05db
00000040: f8f4 1912 07f9 0ac0
-8 -8 10 117 62 6 -15 -44
-127 18 127 126 43 5 -3 -109
7 -10 -56 127 9 -3 -3 -53
7 27 1 114 -127 4 17 -127
-43 127 94 79 -7 -127 127 -120
15 -26 -37 36 9 33 -8 -101
2 -19 -13 75 -7 5 -9 -89
0 -10 -34 19 0 17 5 -37
-8 -12 25 18 7 -7 10 -64

mobilenet_0.25_128/conv_pw_1/Conv2D i1 [16, 1, 1, 8]
00000000: f5e7 0000 d381 ee00 0000 0000 0000 0000
00000010: 0afb 0300 287f 1100 0000 0000 0000 0000
00000020: 0000 0000 0000 0000 f2d6 f700 ca81 ec00
00000030: ff7f ff00 0002 0000 0011 8100 02ff 0100
00000040: 0000 0000 0000 0000 f8ed 0000 ed81 eb00
00000050: 0000 0000 0000 0000 0000 0000 0000 0000
00000060: ff7f 1000 0000 ff00 0b0e 0400 267f 1100
00000070: 0000 0000 0000 0000 0000 0000 0000 0000
-11 -25 0 0 -45 -127 -18 0
0 0 0 0 0 0 0 0
10 -5 3 0 40 127 17 0
0 0 0 0 0 0 0 0
0 0 0 0 0 0 0 0
-14 -42 -9 0 -54 -127 -20 0
-1 127 -1 0 0 2 0 0
0 17 -127 0 2 -1 1 0
0 0 0 0 0 0 0 0
-8 -19 0 0 -19 -127 -21 0
0 0 0 0 0 0 0 0
0 0 0 0 0 0 0 0
-1 127 16 0 0 0 -1 0
11 14 4 0 38 127 17 0
0 0 0 0 0 0 0 0
0 0 0 0 0 0 0 0

mobilenet_0.25_128/conv_dw_2_bn/FusedBatchNormV3;mobilenet_0.25_128/conv_dw_2/depthwise i1 [1, 3, 3, 16]
00000000: 4cac 7f9f a307 81ee bcea 7f7d 06d9 abbc
00000010: b70a fee0 9f7f ecf8 997f 3542 b90f c5a2
00000020: f6a2 0da7 ad08 f0f9 f69e d2af fdfa a981
00000030: 7ffb d3b2 e4f0 d97f 81ed 7275 987f 8112
00000040: 9ea7 faea 8183 f67b 0c5a 021d 8121 8cf0
00000050: ed81 f843 a7ef 090b 49a9 cdef e206 869a
00000060: 069b 0b83 6605 fc01 a504 5c7f daf6 da2d
00000070: f130 00bf 2602 fd0b 8e07 6a6d fcf9 d997
00000080: 089a fe7f a009 00f5 ddf7 5208 d101 d8a7
76 -84 127 -97 -93 7 -127 -18
-68 -22 127 125 6 -39 -85 -68
-73 10 -2 -32 -97 127 -20 -8
-103 127 53 66 -71 15 -59 -94
-10 -94 13 -89 -83 8 -16 -7
-10 -98 -46 -81 -3 -6 -87 -127
127 -5 -45 -78 -28 -16 -39 127
-127 -19 114 117 -104 127 -127 18
-98 -89 -6 -22 -127 -125 -10 123
12 90 2 29 -127 33 -116 -16
-19 -127 -8 67 -89 -17 9 11
73 -87 -51 -17 -30 6 -122 -102
6 -101 11 -125 102 5 -4 1
-91 4 92 127 -38 -10 -38 45
-15 48 0 -65 38 2 -3 11
-114 7 106 109 -4 -7 -39 -105
8 -102 -2 127 -96 9 0 -11
-35 -9 82 8 -47 1 -40 -89

mobilenet_0.25_128/conv_pw_2/Conv2D i1 [32, 1, 1, 16]
00000000: f400 7f00 000a ec02 0009 0000 0626 0000
00000010: 8100 0e00 000c ff00 0008 0000 00f3 0000
00000020: ea00 8100 003c 0000 0003 0000 0673 0000
00000030: df00 a100 00f8 0200 0003 0000 057f 0000
00000040: d600 be00 0013 fdc5 00f8 0000 9d81 0000
00000050: 0200 0500 00ff 7235 0000 0000 8108 0000
00000060: 0000 0200 0000 137f 00fe 0000 f302 0000
00000070: 0000 0000 0000 0000 0000 0000 0000 0000
00000080: 7e00 a600 00c9 d909 007f 0000 3ec6 0000
00000090: ff00 fa00 0001 ee7f 0001 0000 2bf9 0000
000000a0: 0000 0000 0000 0000 0000 0000 0000 0000
000000b0: 0100 fd00 00fe ba7f 0000 0000 43fe 0000
000000c0: 0d00 7f00 00f6 dffb 00fe 0000 fe43 0000
000000d0: 4a00 5400 0044 eaf9 00fc 0000 0c7f 0000
000000e0: d600 8f00 00ff 360d 00f4 0000 2981 0000
000000f0: 7f00 df00 004c 17f7 002a 0000 00b9 0000
-12 0 127 0 0 10 -20 2
0 9 0 0 6 38 0 0
-127 0 14 0 0 12 -1 0
0 8 0 0 0 -13 0 0
-22 0 -127 0 0 60 0 0
0 3 0 0 6 115 0 0
-33 0 -95 0 0 -8 2 0
0 3 0 0 5 127 0 0
-42 0 -66 0 0 19 -3 -59
0 -8 0 0 -99 -127 0 0
2 0 5 0 0 -1 114 53
0 0 0 0 -127 8 0 0
0 0 2 0 0 0 19 127
0 -2 0 0 -13 2 0 0
0 0 0 0 0 0 0 0
0 0 0 0 0 0 0 0
126 0 -90 0 0 -55 -39 9
0 127 0 0 62 -58 0 0
-1 0 -6 0 0 1 -18 127
0 1 0 0 43 -7 0 0
0 0 0 0 0 0 0 0
0 0 0 0 0 0 0 0
1 0 -3 0 0 -2 -70 127
0 0 0 0 67 -2 0 0
13 0 127 0 0 -10 -33 -5
0 -2 0 0 -2 67 0 0
74 0 84 0 0 68 -22 -7
0 -4 0 0 12 127 0 0
-42 0 -113 0 0 -1 54 13
0 -12 0 0 41 -127 0 0
127 0 -33 0 0 76 23 -9
0 42 0 0 0 -71 0 0

mobilenet_0.25_128/conv_dw_3_bn/FusedBatchNormV3;mobilenet_0.25_128/conv_dw_3/depthwise;mobilenet_0.25_128/conv_dw_4/depthwise i1 [1, 3, 3, 32]
00000000: fcf9 fced 0bf2 eb46 d3ea 04fc 017f f0d5
00000010: 07da 0008 eaf3 e702 f5a0 f9ee d491 f408
00000020: 07f9 007f 1bf3 a016 0e43 7fed fe87 2a7f
00000030: 7f07 6bf9 dc06 14ff 81c7 e523 bd44 cf00
00000040: 000a ffd1 e201 4c30 b80d 6a16 08fb f4fc
00000050: 0a1a 09f8 11f5 fff4 050d 02f5 400f 2802
00000060: f3f1 f4f3 ead0 bf27 a41e 239e 002f 192b
00000070: f681 027f b209 88f1 1c7f 7ff5 cb7f 0538
00000080: 7781 7fdc 7f7f 813f 8181 217f 8cea 81a1
00000090: 8b1f 7f0b 7f7f 7f7f 503c c37f 81bd 817f
000000a0: 8116 f40b e9df 23fb eeee cfe5 fdf5 1efa
000000b0: f068 fcfa 1407 0703 0407 ee84 12f0 0d18
000000c0: 0101 0000 fe1a 5017 caf6 bafd fcf0 04fb
000000d0: 03ed f500 efe8 f403 f8d8 edf0 4408 1401
000000e0: edfe fce8 d0be 117f c140 0cff 7f09 12ff
000000f0: fb0a 1bf9 35f0 00f6 16f8 f916 21f5 1ffc
-4 -7 -4 -19 11 -14 -21 70
-45 -22 4 -4 1 127 -16 -43
7 -38 0 8 -22 -13 -25 2
-11 -96 -7 -18 -44 -111 -12 8
7 -7 0 127 27 -13 -96 22
14 67 127 -19 -2 -121 42 127
127 7 107 -7 -36 6 20 -1
-127 -57 -27 35 -67 68 -49 0
0 10 -1 -47 -30 1 76 48
-72 13 106 22 8 -5 -12 -4
10 26 9 -8 17 -11 -1 -12
5 13 2 -11 64 15 40 2
-13 -15 -12 -13 -22 -48 -65 39
-92 30 35 -98 0 47 25 43
-10 -127 2 127 -78 9 -120 -15
28 127 127 -11 -53 127 5 56
119 -127 127 -36 127 127 -127 63
-127 -127 33 127 -116 -22 -127 -95
-117 31 127 11 127 127 127 127
80 60 -61 127 -127 -67 -127 127
-127 22 -12 11 -23 -33 35 -5
-18 -18 -49 -27 -3 -11 30 -6
-16 104 -4 -6 20 7 7 3
4 7 -18 -124 18 -16 13 24
1 1 0 0 -2 26 80 23
-54 -10 -70 -3 -4 -16 4 -5
3 -19 -11 0 -17 -24 -12 3
-8 -40 -19 -16 68 8 20 1
-19 -2 -4 -24 -48 -66 17 127
-63 64 12 -1 127 9 18 -1
-5 10 27 -7 53 -16 0 -10
22 -8 -7 22 33 -11 31 -4

mobilenet_0.25_128/conv_pw_3/Conv2D i1 [32, 1, 1, 32]
00000000: d401 f4c0 18f8 f400 0503 0001 1103 a413
00000010: 0ad4 88e8 f7e7 160b 8119 9a0c 0374 1dcd
00000020: cb5f b6e9 0ff3 0a00 4a02 00fb 40d3 1e1a
00000030: c3f9 0777 faec ce95 5afb 8129 f425 08df
00000040: 0206 cec8 05f2 0300 440d 00fd f2f1 250f
00000050: f4ff 7ffa 0303 0c07 5d02 1e02 0d0f f90d
00000060: 0000 0706 df05 ad00 14fc 00ef 0105 d504
00000070: 0006 05ff 0a07 03ff 0803 0901 7f06 ba04
00000080: cfc2 3ac7 0708 f400 bbf6 0001 1514 3118
00000090: e909 f3ee fbf4 d6ee 8cf2 7f01 0b1c 0e6a
000000a0: 17f9 180a 81e9 f400 fe05 0027 05fe 64fe
000000b0: 04e9 05ff 040d 0707 0f0a fcf6 6f11 b51d
000000c0: 7c3d d401 12e2 f000 2a10 00fe c82c 7fdf
000000d0: 02f0 ef30 fa03 1bb9 2f0e 00ea fac9 0ceb
000000e0: 2aca 0407 0105 fa00 2a16 00fe 2519 334d
000000f0: c3f3 30c3 f8ec d8a3 7f04 1bed f417 ee0e
-44 1 -12 -64 24 -8 -12 0
5 3 0 1 17 3 -92 19
10 -44 -120 -24 -9 -25 22 11
-127 25 -102 12 3 116 29 -51
-53 95 -74 -23 15 -13 10 0
74 2 0 -5 64 -45 30 26
-61 -7 7 119 -6 -20 -50 -107
90 -5 -127 41 -12 37 8 -33
2 6 -50 -56 5 -14 3 0
68 13 0 -3 -14 -15 37 15
-12 -1 127 -6 3 3 12 7
93 2 30 2 13 15 -7 13
0 0 7 6 -33 5 -83 0
20 -4 0 -17 1 5 -43 4
0 6 5 -1 10 7 3 -1
8 3 9 1 127 6 -70 4
-49 -62 58 -57 7 8 -12 0
-69 -10 0 1 21 20 49 24
-23 9 -13 -18 -5 -12 -42 -18
-116 -14 127 1 11 28 14 106
23 -7 24 10 -127 -23 -12 0
-2 5 0 39 5 -2 100 -2
4 -23 5 -1 4 13 7 7
15 10 -4 -10 111 17 -75 29
124 61 -44 1 18 -30 -16 0
42 16 0 -2 -56 44 127 -33
2 -16 -17 48 -6 3 27 -71
47 14 0 -22 -6 -55 12 -21
42 -54 4 7 1 5 -6 0
42 22 0 -2 37 25 51 77
-61 -13 48 -61 -8 -20 -40 -93
127 4 27 -19 -12 23 -18 14

mobilenet_0.25_128/conv_dw_4_bn/FusedBatchNormV3;mobilenet_0.25_128/conv_dw_4/depthwise i1 [1, 3, 3, 32]
00000000: 3a38 fa28 3ae5 5546 cdb6 c231 d6d9 257c
00000010: c44d d6d2 cd28 d3da bbca 2dbb 421b 4735
00000020: 585e fc4a a654 a15f ab99 a956 bc9f 4a7f
00000030: b3b5 c4bd ae5b b4c8 a281 46a2 a039 5e5a
00000040: 2634 fa30 1cd3 1430 ddd6 e531 e1c7 291d
00000050: e5fe e7ef db3d dae9 ddb7 22d7 1c25 252d
00000060: 6255 d84c b4d1 b952 b3ab a44e a9c6 467b
00000070: 9e7f abe1 ad43 4aa2 a532 44a8 a8bc 5d53
00000080: 7f7f ba7f 7f7f 7f7f 8181 817f 8181 7f52
00000090: 8191 8162 817f 7f81 8155 7f81 7f81 7f7f
000000a0: 4545 e154 d3ae df42 c5cb d344 c9b5 41e2
000000b0: d0f8 c71f c453 30cd c532 3fcc cfc1 2f36
000000c0: 2c26 512c 12e7 051b dfea e220 c9e8 2814
000000d0: da37 d37f d91f f7c3 dd01 1fe4 1316 2425
000000e0: 4b3e 7f4b db37 f438 cdde d142 b7cd 44de
000000f0: c8c6 bc1e c436 e7aa cdfc 40d3 db33 3133
58 56 -6 40 58 -27 85 70
-51 -74 -62 49 -42 -39 37 124
-60 77 -42 -46 -51 40 -45 -38
-69 -54 45 -69 66 27 71 53
88 94 -4 74 -90 84 -95 95
-85 -103 -87 86 -68 -97 74 127
-77 -75 -60 -67 -82 91 -76 -56
-94 -127 70 -94 -96 57 94 90
38 52 -6 48 28 -45 20 48
-35 -42 -27 49 -31 -57 41 29
-27 -2 -25 -17 -37 61 -38 -23
-35 -73 34 -41 28 37 37 45
98 85 -40 76 -76 -47 -71 82
-77 -85 -92 78 -87 -58 70 123
-98 127 -85 -31 -83 67 74 -94
-91 50 68 -88 -88 -68 93 83
127 127 -70 127 127 127 127 127
-127 -127 -127 127 -127 -127 127 82
-127 -111 -127 98 -127 127 127 -127
-127 85 127 -127 127 -127 127 127
69 69 -31 84 -45 -82 -33 66
-59 -53 -45 68 -55 -75 65 -30
-48 -8 -57 31 -60 83 48 -51
-59 50 63 -52 -49 -63 47 54
44 38 81 44 18 -25 5 27
-33 -22 -30 32 -55 -24 40 20
-38 55 -45 127 -39 31 -9 -61
-35 1 31 -28 19 22 36 37
75 62 127 75 -37 55 -12 56
-51 -34 -47 66 -73 -51 68 -34
-56 -58 -68 30 -60 54 -25 -86
-51 -4 64 -45 -37 51 49 51

mobilenet_0.25_128/conv_pw_4/Conv2D i1 [64, 1, 1, 32]
00000000: 01cb 02fa e2fd e47f fe1f fff7 e4f8 ffd9
00000010: 00fe 0500 f948 054e c3fa 1006 deeb fdf9
00000020: 01f5 ff00 0cf8 12df 05db fa05 1164 1611
00000030: 81fd 8100 f41d 0542 07fe fd29 0e00 a004
00000040: 0801 1605 0502 0003 08fa fb07 19f8 0212
00000050: 7f04 c900 1ffa 1cf6 f423 0408 0227 06ff
00000060: fe4c 0807 fbf1 feca f8f6 fb06 0c02 0508
00000070: fbf5 fe00 0281 080c 4ff3 0b14 00ee 0002
00000080: f5f5 fe81 fdf5 fef8 fe12 cd6b 0503 f6fd
00000090: fffc 0000 030d fefe 01ff 01f7 fcff fce8
000000a0: 0bfd f7f3 0229 fffa fc1a 01fa fb04 fdee
000000b0: f825 0200 fb09 f401 f4fe 7ffb 0201 fdd3
000000c0: eb08 00a8 f9fd ff17 0b23 81f3 01f4 d328
000000d0: 1405 1100 07e7 004c e3e2 f0f1 f7dd fd03
000000e0: 1112 16f3 09e8 0a1f e7ee fbf7 fb05 2bf5
000000f0: 96eb 9d00 dee8 25f2 f922 fd7f 0c1a 12dc
1 -53 2 -6 -30 -3 -28 127
-2 31 -1 -9 -28 -8 -1 -39
0 -2 5 0 -7 72 5 78
-61 -6 16 6 -34 -21 -3 -7
1 -11 -1 0 12 -8 18 -33
5 -37 -6 5 17 100 22 17
-127 -3 -127 0 -12 29 5 66
7 -2 -3 41 14 0 -96 4
8 1 22 5 5 2 0 3
8 -6 -5 7 25 -8 2 18
127 4 -55 0 31 -6 28 -10
-12 35 4 8 2 39 6 -1
-2 76 8 7 -5 -15 -2 -54
-8 -10 -5 6 12 2 5 8
-5 -11 -2 0 2 -127 8 12
79 -13 11 20 0 -18 0 2
-11 -11 -2 -127 -3 -11 -2 -8
-2 18 -51 107 5 3 -10 -3
-1 -4 0 0 3 13 -2 -2
1 -1 1 -9 -4 -1 -4 -24
11 -3 -9 -13 2 41 -1 -6
-4 26 1 -6 -5 4 -3 -18
-8 37 2 0 -5 9 -12 1
-12 -2 127 -5 2 1 -3 -45
-21 8 0 -88 -7 -3 -1 23
11 35 -127 -13 1 -12 -45 40
20 5 17 0 7 -25 0 76
-29 -30 -16 -15 -9 -35 -3 3
17 18 22 -13 9 -24 10 31
-25 -18 -5 -9 -5 5 43 -11
-106 -21 -99 0 -34 -24 37 -14
-7 34 -3 127 12 26 18 -36

mobilenet_0.25_128/conv_dw_5_bn/FusedBatchNormV3;mobilenet_0.25_128/conv_dw_5/depthwise;mobilenet_0.25_128/conv_dw_6/depthwise i1 [1, 3, 3, 64]
00000000: 1003 fdf5 0d13 17fc 06fc 0236 ecfb fcfd
00000010: 1801 09ff 2d14 0546 27cb 1002 cb81 eb00
00000020: 4dce 04fe e7f6 0303 2af7 5300 f3fc 14de
00000030: fd0e f7f8 dd07 0ef3 1960 ffec f9ee 0339
00000040: 15f0 1a0c e62b 7a02 d102 09c1 be0d 05d2
00000050: 7f01 03ed 8d6a 78ef 70ec 8130 ff55 bcfe
00000060: dc24 1d43 15e8 e5f2 9420 a12a 2505 7655
00000070: 0f33 8724 18ed 088d f4fc 113e 0409 1abe
00000080: ed04 f305 0402 12fb 0cfd 00de ffff fc0d
00000090: 03fb 09fa f2f9 31eb 140d 28f5 2713 f702
000000a0: ca34 15f0 0706 0308 15f6 09fb eb06 0fe8
000000b0: f7e5 0cf6 0702 05f3 f681 fde1 ff17 fe04
000000c0: 20e4 6016 7f39 e6f6 ef34 04d9 c40f 00d9
000000d0: f9ff 0302 8fda f302 dd20 2f0f 0f53 180a
000000e0: dc03 f354 81e9 d0ec a043 7f07 0d21 e8fb
000000f0: 0281 7f30 30ed f111 6d52 e77f 6a0f 11b3
16 3 -3 -11 13 19 23 -4
6 -4 2 54 -20 -5 -4 -3
24 1 9 -1 45 20 5 70
39 -53 16 2 -53 -127 -21 0
77 -50 4 -2 -25 -10 3 3
42 -9 83 0 -13 -4 20 -34
-3 14 -9 -8 -35 7 14 -13
25 96 -1 -20 -7 -18 3 57
21 -16 26 12 -26 43 122 2
-47 2 9 -63 -66 13 5 -46
127 1 3 -19 -115 106 120 -17
112 -20 -127 48 -1 85 -68 -2
-36 36 29 67 21 -24 -27 -14
-108 32 -95 42 37 5 118 85
15 51 -121 36 24 -19 8 -115
-12 -4 17 62 4 9 26 -66
-19 4 -13 5 4 2 18 -5
12 -3 0 -34 -1 -1 -4 13
3 -5 9 -6 -14 -7 49 -21
20 13 40 -11 39 19 -9 2
-54 52 21 -16 7 6 3 8
21 -10 9 -5 -21 6 15 -24
-9 -27 12 -10 7 2 5 -13
-10 -127 -3 -31 -1 23 -2 4
32 -28 96 22 127 57 -26 -10
-17 52 4 -39 -60 15 0 -39
-7 -1 3 2 -113 -38 -13 2
-35 32 47 15 15 83 24 10
-36 3 -13 84 -127 -23 -48 -20
-96 67 127 7 13 33 -24 -5
2 -127 127 48 48 -19 -15 17
109 82 -25 127 106 15 17 -77

mobilenet_0.25_128/conv_pw_5/Conv2D i1 [64, 1, 1, 64]
00000000: 1c05 f800 0001 03f1 fbf1 06fa f6f5 8101
00000010: f52e 01f9 f906 fffe 040c faf1 101c 04fc
00000020: 0e00 010a 0108 0df0 0207 04ff fefb faff
00000030: f305 f90c ecff 01ff 0204 ea08 01f5 071a
00000040: f7fc fbf2 051e fe05 fbfc 7f11 fbf6 f9ef
00000050: fbfe ed1c dbfe fc08 ee02 0ffd 0c03 0904
00000060: 0403 06ff 03fa 0a00 fdf8 fbf9 0003 fefd
00000070: 01f0 020f fbba 010d fff9 08fb 0106 0101
00000080: 275a e412 f7ee d891 c6cc 0e04 d92d 24fc
00000090: 8e2b 02ed fcf2 e435 ecfa 060b 09f2 3a0c
000000a0: fd32 0ae1 f837 0e17 1b0e f7b5 0bd4 f7ff
000000b0: 4311 cfa4 17ff 73ea f80b 58f5 16fb 7fea
000000c0: eedb f4ff 01f1 11ee 0bf9 f7e4 1cf8 fe14
000000d0: 0d12 fcef 7fc7 0238 2025 1cfd 4d05 0af6
000000e0: 4619 fddf d0e0 e9f7 fee4 17ea 1208 c6fb
000000f0: de0c 90d0 ea02 02d5 de47 222c 12f9 022c
28 5 -8 0 0 1 3 -15
-5 -15 6 -6 -10 -11 -127 1
-11 46 1 -7 -7 6 -1 -2
4 12 -6 -15 16 28 4 -4
14 0 1 10 1 8 13 -16
2 7 4 -1 -2 -5 -6 -1
-13 5 -7 12 -20 -1 1 -1
2 4 -22 8 1 -11 7 26
-9 -4 -5 -14 5 30 -2 5
-5 -4 127 17 -5 -10 -7 -17
-5 -2 -19 28 -37 -2 -4 8
-18 2 15 -3 12 3 9 4
4 3 6 -1 3 -6 10 0
-3 -8 -5 -7 0 3 -2 -3
1 -16 2 15 -5 -70 1 13
-1 -7 8 -5 1 6 1 1
39 90 -28 18 -9 -18 -40 -111
-58 -52 14 4 -39 45 36 -4
-114 43 2 -19 -4 -14 -28 53
-20 -6 6 11 9 -14 58 12
-3 50 10 -31 -8 55 14 23
27 14 -9 -75 11 -44 -9 -1
67 17 -49 -92 23 -1 115 -22
-8 11 88 -11 22 -5 127 -22
-18 -37 -12 -1 1 -15 17 -18
11 -7 -9 -28 28 -8 -2 20
13 18 -4 -17 127 -57 2 56
32 37 28 -3 77 5 10 -10
70 25 -3 -33 -48 -32 -23 -9
-2 -28 23 -22 18 8 -58 -5
-34 12 -112 -48 -22 2 2 -43
-34 71 34 44 18 -7 2 44

mobilenet_0.25_128/conv_dw_6_bn/FusedBatchNormV3;mobilenet_0.25_128/conv_dw_6/depthwise i1 [1, 3, 3, 64]
00000000: 3657 b332 5c4b c949 95b7 5a3e 47b5 58ae
00000010: 4f0d 4eae 3e48 39b8 9c46 6ebf 1e7f 7552
00000020: 4141 cb3b 3fc0 4cbb 4d6b 4348 c597 b959
00000030: c64f afb0 b261 b640 c647 50bc 85ca 443d
00000040: 5e66 a14f 7f5e ad5c 9e58 7f5d 5da5 5d91
00000050: 64af 61a1 505d 45a4 9058 b5a0 130f 7f63
00000060: 6052 a44a 5aa7 5fa2 5d75 615a a18c 9faa
00000070: ac64 a09b 90a6 9d58 b85a 64a5 81af 5d67
00000080: 2832 da24 372d d926 d50f 361d 24e0 24c6
00000090: 3248 1fd4 2924 1de4 dd20 cee2 2af6 1325
000000a0: 2c20 d018 27d8 29dd 1f34 2f20 c7d5 dbf3
000000b0: df20 e0d4 c9f3 cb24 dc23 2add d0dd 2f2b
000000c0: 4468 995a 9461 b069 8181 c358 6196 759d
000000d0: 651a 6794 6362 6c9e 8a65 7fb1 f46f 2e6e
000000e0: 5e67 b562 5ca2 5fa9 6474 5b64 b18e a37f
000000f0: ab5d a49c a37f a15a a95d 65a5 36a5 5a4b
54 87 -77 50 92 75 -55 73
-107 -73 90 62 71 -75 88 -82
79 13 78 -82 62 72 57 -72
-100 70 110 -65 30 127 117 82
65 65 -53 59 63 -64 76 -69
77 107 67 72 -59 -105 -71 89
-58 79 -81 -80 -78 97 -74 64
-58 71 80 -68 -123 -54 68 61
94 102 -95 79 127 94 -83 92
-98 88 127 93 93 -91 93 -111
100 -81 97 -95 80 93 69 -92
-112 88 -75 -96 19 15 127 99
96 82 -92 74 90 -89 95 -94
93 117 97 90 -95 -116 -97 -86
-84 100 -96 -101 -112 -90 -99 88
-72 90 100 -91 -127 -81 93 103
40 50 -38 36 55 45 -39 38
-43 15 54 29 36 -32 36 -58
50 72 31 -44 41 36 29 -28
-35 32 -50 -30 42 -10 19 37
44 32 -48 24 39 -40 41 -35
31 52 47 32 -57 -43 -37 -13
-33 32 -32 -44 -55 -13 -53 36
-36 35 42 -35 -48 -35 47 43
68 104 -103 90 -108 97 -80 105
-127 -127 -61 88 97 -106 117 -99
101 26 103 -108 99 98 108 -98
-118 101 127 -79 -12 111 46 110
94 103 -75 98 92 -94 95 -87
100 116 91 100 -79 -114 -93 127
-85 93 -92 -100 -93 127 -95 90
-87 93 101 -91 54 -91 90 75

mobilenet_0.25_128/conv_pw_6/Conv2D i1 [128, 1, 1, 64]
00000000: 08a2 1505 f7ec 2e07 f6f9 f90b f00d 09fc
00000010: 14ff f30c d019 f5ff effb f8ea fbfc 0f02
00000020: fa00 1625 20ee 1447 00cc 0de9 fbd7 0dfb
00000030: f3f1 f8f3 f000 edf9 7ffc 1416 fd07 05f7
00000040: 0af4 280f ddfb cffc f10b e813 9001 e90a
00000050: f3cd e1e2 0051 0cf9 ea0d 0ac2 1312 fcad
00000060: c7e2 e4eb 7fd6 fc03 e21e 2412 2e43 47ea
00000070: 0a23 46ea f9eb 140e fc3b 25cd 1bfd fb0d
00000080: 0502 0419 02f7 f881 04fd 0e0a fd01 f7f9
00000090: 00fd 04ff 06ff 10ff 02fc fcf5 fd11 07fe
000000a0: ef7f 0c09 f602 0302 0501 1304 fdfd fdff
000000b0: ee26 0807 0100 fa08 03ea ff0a 0a03 f9f5
000000c0: eeff d018 f3f6 0b06 031a f401 ddf5 8f1f
000000d0: f415 e7ed 0221 0cfd 0259 0914 e1e6 0947
000000e0: fdf4 fae5 4102 8104 eaf2 0008 0804 3521
000000f0: ed06 f614 01fb d7e6 0d04 ec4a 0307 ee16
8 -94 21 5 -9 -20 46 7
-10 -7 -7 11 -16 13 9 -4
20 -1 -13 12 -48 25 -11 -1
-17 -5 -8 -22 -5 -4 15 2
-6 0 22 37 32 -18 20 71
0 -52 13 -23 -5 -41 13 -5
-13 -15 -8 -13 -16 0 -19 -7
127 -4 20 22 -3 7 5 -9
10 -12 40 15 -35 -5 -49 -4
-15 11 -24 19 -112 1 -23 10
-13 -51 -31 -30 0 81 12 -7
-22 13 10 -62 19 18 -4 -83
-57 -30 -28 -21 127 -42 -4 3
-30 30 36 18 46 67 71 -22
10 35 70 -22 -7 -21 20 14
-4 59 37 -51 27 -3 -5 13
5 2 4 25 2 -9 -8 -127
4 -3 14 10 -3 1 -9 -7
0 -3 4 -1 6 -1 16 -1
2 -4 -4 -11 -3 17 7 -2
-17 127 12 9 -10 2 3 2
5 1 19 4 -3 -3 -3 -1
-18 38 8 7 1 0 -6 8
3 -22 -1 10 10 3 -7 -11
-18 -1 -48 24 -13 -10 11 6
3 26 -12 1 -35 -11 -113 31
-12 21 -25 -19 2 33 12 -3
2 89 9 20 -31 -26 9 71
-3 -12 -6 -27 65 2 -127 4
-22 -14 0 8 8 4 53 33
-19 6 -10 20 1 -5 -41 -26
13 4 -20 74 3 7 -18 22

mobilenet_0.25_128/conv_dw_7_bn/FusedBatchNormV3;mobilenet_0.25_128/conv_dw_7/depthwise;mobilenet_0.25_128/conv_dw_12/depthwise i1 [1, 3, 3, 128]
00000000: 1608 f5fb 0501 05fe fdfd fe02 f9fe 01ff
00000010: 04ff 04fb cffe fdff f902 ff06 fd03 01fe
00000020: f904 fcfd 0901 0b04 ebf8 00fe 1581 f909
00000030: f9f5 0503 fbf2 0ff8 0d0a 01fd f40f 02ea
00000040: 0500 10f9 05fe 09ff 060c 0100 ea09 03f6
00000050: 06f6 fa00 16fc 020b 03fb 0104 0704 0705
00000060: 0010 0805 0801 3209 fbf9 02f6 0016 eff9
00000070: fdff ff1b 1302 14fd fbff 15fe e4ff 0c02
00000080: 7f1a 0007 0186 f109 0df4 faf5 fc09 11bc
00000090: f1fd daeb 8ec6 c1e7 07fb e17f f8ee f8f6
000000a0: 987f f4fe 050a f0db 1881 e7f8 7f6e c2fb
000000b0: ec06 f3ec 05ea 7fca f17f f00a ea7f 0519
000000c0: 280e e9fe ff02 f27f eaea ed16 170b f2fa
000000d0: 26e9 ed0a ec1d ecf2 13f9 eaf5 f9f5 f019
000000e0: ec81 03ee fef3 e07f bfcc 7f0a a7f6 28ed
000000f0: 0f25 ee7f f50f 54ee ca15 b5e2 bdf5 e80d
22 8 -11 -5 5 1 5 -2
-3 -3 -2 2 -7 -2 1 -1
4 -1 4 -5 -49 -2 -3 -1
-7 2 -1 6 -3 3 1 -2
-7 4 -4 -3 9 1 11 4
-21 -8 0 -2 21 -127 -7 9
-7 -11 5 3 -5 -14 15 -8
13 10 1 -3 -12 15 2 -22
5 0 16 -7 5 -2 9 -1
6 12 1 0 -22 9 3 -10
6 -10 -6 0 22 -4 2 11
3 -5 1 4 7 4 7 5
0 16 8 5 8 1 50 9
-5 -7 2 -10 0 22 -17 -7
-3 -1 -1 27 19 2 20 -3
-5 -1 21 -2 -28 -1 12 2
127 26 0 7 1 -122 -15 9
13 -12 -6 -11 -4 9 17 -68
-15 -3 -38 -21 -114 -58 -63 -25
7 -5 -31 127 -8 -18 -8 -10
-104 127 -12 -2 5 10 -16 -37
24 -127 -25 -8 127 110 -62 -5
-20 6 -13 -20 5 -22 127 -54
-15 127 -16 10 -22 127 5 25
40 14 -23 -2 -1 2 -14 127
-22 -22 -19 22 23 11 -14 -6
38 -23 -19 10 -20 29 -20 -14
19 -7 -22 -11 -7 -11 -16 25
-20 -127 3 -18 -2 -13 -32 127
-65 -52 127 10 -89 -10 40 -19
15 37 -18 127 -11 15 84 -18
-54 21 -75 -30 -67 -11 -24 13

mobilenet_0.25_128/conv_pw_7/Conv2D i1 [128, 1, 1, 128]
00000000: 14d0 09e8 00ca fac7 fdf7 17fb f0c5 0126
00000010: 490e 1619 ed20 0f0a d1ec f0ef 33de 1211
00000020: ec06 c404 f8fb fdcd 03fe e2f4 1016 0032
00000030: f634 f802 7600 10de fbfa ea07 b61e f9ee
00000040: 9c7f 2804 fcfe ebf4 f101 0c2e 07ff 30f1
00000050: 1204 ff1d 12dd 0f3d cbc3 e30a 1bfe f2f5
00000060: 29f4 1053 f10b fd06 1616 0bd1 f001 1d22
00000070: f9e1 0d01 3268 0d11 e8e9 051b 00f8 3223
00000080: 0ad6 031f 000f f8fe e706 08ff fc08 0902
00000090: fd28 00ed 0107 fc03 edfb fafb ef21 f414
000000a0: fc08 fc09 12dd fb19 0600 f311 0dfa effc
000000b0: f404 02f8 14ff fed9 fa03 0701 d306 fdfe
000000c0: e9df fc01 01ff f411 edfa fdf3 09ef 2d14
000000d0: 1b05 03f2 0221 7fee fd02 2bfe d4fc f2f4
000000e0: 030c f61c 01fb fe0a 1ff1 0dfe fef8 e8f4
000000f0: f3fc 060e ef1b f71d fa0e 03e5 0cf8 fff7
20 -48 9 -24 0 -54 -6 -57
-3 -9 23 -5 -16 -59 1 38
73 14 22 25 -19 32 15 10
-47 -20 -16 -17 51 -34 18 17
-20 6 -60 4 -8 -5 -3 -51
3 -2 -30 -12 16 22 0 50
-10 52 -8 2 118 0 16 -34
-5 -6 -22 7 -74 30 -7 -18
-100 127 40 4 -4 -2 -21 -12
-15 1 12 46 7 -1 48 -15
18 4 -1 29 18 -35 15 61
-53 -61 -29 10 27 -2 -14 -11
41 -12 16 83 -15 11 -3 6
22 22 11 -47 -16 1 29 34
-7 -31 13 1 50 104 13 17
-24 -23 5 27 0 -8 50 35
10 -42 3 31 0 15 -8 -2
-25 6 8 -1 -4 8 9 2
-3 40 0 -19 1 7 -4 3
-19 -5 -6 -5 -17 33 -12 20
-4 8 -4 9 18 -35 -5 25
6 0 -13 17 13 -6 -17 -4
-12 4 2 -8 20 -1 -2 -39
-6 3 7 1 -45 6 -3 -2
-23 -33 -4 1 1 -1 -12 17
-19 -6 -3 -13 9 -17 45 20
27 5 3 -14 2 33 127 -18
-3 2 43 -2 -44 -4 -14 -12
3 12 -10 28 1 -5 -2 10
31 -15 13 -2 -2 -8 -24 -12
-13 -4 6 14 -17 27 -9 29
-6 14 3 -27 12 -8 -1 -9

mobilenet_0.25_128/conv_dw_8_bn/FusedBatchNormV3;mobilenet_0.25_128/conv_dw_8/depthwise;mobilenet_0.25_128/conv_dw_12/depthwise i1 [1, 3, 3, 128]
00000000: 0401 040e 221c f40c 0437 f621 faff dd04
00000010: 05f9 feef 01f1 0203 060c ff06 09f7 220b
00000020: f804 fd00 ec01 02f1 020e ff01 23fc 0515
00000030: d9c8 10f9 1426 0300 0dfd 0301 0106 0ba2
00000040: e11c cd0c 2504 17ec 0afe dcdb 07fc 0205
00000050: 0607 1404 fcf7 1105 f705 0e1f 0313 3dee
00000060: 0507 2bf9 e10a 470a 0509 0609 02fb face
00000070: 0f07 d9fd 07fb 01fe 0512 081a f3fe 0607
00000080: 04f5 09fa 0f7f ece7 082a 92fa f5fd ed0d
00000090: 09f1 0703 f707 1600 faec 0402 35e0 f017
000000a0: 8bff 1b0a ecf4 fe00 cceb f2f5 03ed fa7f
000000b0: ba81 1dfa d07f f004 d6fd d209 07ff b693
000000c0: d37f a025 dd04 0ed5 22f1 abe1 f2bc a01a
000000d0: a7ff 1af5 ed6e 1405 d612 187f f8fb 39ee
000000e0: ea1c 0027 6704 7f7f 000a 157f 9afc f6bb
000000f0: 1717 e1a3 01e4 08ee f204 025f 0428 e901
4 1 4 14 34 28 -12 12
4 55 -10 33 -6 -1 -35 4
5 -7 -2 -17 1 -15 2 3
6 12 -1 6 9 -9 34 11
-8 4 -3 0 -20 1 2 -15
2 14 -1 1 35 -4 5 21
-39 -56 16 -7 20 38 3 0
13 -3 3 1 1 6 11 -94
-31 28 -51 12 37 4 23 -20
10 -2 -36 -37 7 -4 2 5
6 7 20 4 -4 -9 17 5
-9 5 14 31 3 19 61 -18
5 7 43 -7 -31 10 71 10
5 9 6 9 2 -5 -6 -50
15 7 -39 -3 7 -5 1 -2
5 18 8 26 -13 -2 6 7
4 -11 9 -6 15 127 -20 -25
8 42 -110 -6 -11 -3 -19 13
9 -15 7 3 -9 7 22 0
-6 -20 4 2 53 -32 -16 23
-117 -1 27 10 -20 -12 -2 0
-52 -21 -14 -11 3 -19 -6 127
-70 -127 29 -6 -48 127 -16 4
-42 -3 -46 9 7 -1 -74 -109
-45 127 -96 37 -35 4 14 -43
34 -15 -85 -31 -14 -68 -96 26
-89 -1 26 -11 -19 110 20 5
-42 18 24 127 -8 -5 57 -18
-22 28 0 39 103 4 127 127
0 10 21 127 -102 -4 -10 -69
23 23 -31 -93 1 -28 8 -18
-14 4 2 95 4 40 -23 1

mobilenet_0.25_128/conv_pw_8/Conv2D i1 [128, 1, 1, 128]
00000000: db69 ee13 1c23 1911 fdda 10ef fd9c 1803
00000010: d6d5 0ff8 1037 add3 21fd 3548 fc07 0b44
00000020: 08ea 4a26 203c f516 ce15 0f3f ff13 1dfc
00000030: 322a 1a0f 1207 3e4f 0f6b 0a20 f541 fa4b
00000040: 0b28 dc0b 1136 13f9 4330 17fa f318 3a0c
00000050: fc13 f02b f22c de16 0a05 2b0c e90c ee36
00000060: 147f fded f601 3900 f9d3 bfc6 2148 d2fe
00000070: 020f cef3 1bf6 454b e318 0ae8 0af4 aa08
00000080: cdf3 e3f1 e4fa e255 db73 0a14 39f8 eb23
00000090: 06f0 f02e 2742 15a1 1308 f8e8 f4da 0911
000000a0: 5136 2b07 d618 27f9 1fe3 35f0 c127 f808
000000b0: 2d91 11fe f8ea 5b2a 451b dd24 f9c6 d4f2
000000c0: b8dd 3f1c 1734 9708 11e7 2af1 f7c0 2c26
000000d0: 24fe cd16 f635 d3d3 f609 e62e de20 11c8
000000e0: dffe c35d 1e7f 16cc d984 0b0c 1ce6 f40f
000000f0: def1 dca9 181f 0dd3 0ef9 ee18 fa08 f416
-37 105 -18 19 28 35 25 17
-3 -38 16 -17 -3 -100 24 3
-42 -43 15 -8 16 55 -83 -45
33 -3 53 72 -4 7 11 68
8 -22 74 38 32 60 -11 22
-50 21 15 63 -1 19 29 -4
50 42 26 15 18 7 62 79
15 107 10 32 -11 65 -6 75
11 40 -36 11 17 54 19 -7
67 48 23 -6 -13 24 58 12
-4 19 -16 43 -14 44 -34 22
10 5 43 12 -23 12 -18 54
20 127 -3 -19 -10 1 57 0
-7 -45 -65 -58 33 72 -46 -2
2 15 -50 -13 27 -10 69 75
-29 24 10 -24 10 -12 -86 8
-51 -13 -29 -15 -28 -6 -30 85
-37 115 10 20 57 -8 -21 35
6 -16 -16 46 39 66 21 -95
19 8 -8 -24 -12 -38 9 17
81 54 43 7 -42 24 39 -7
31 -29 53 -16 -63 39 -8 8
45 -111 17 -2 -8 -22 91 42
69 27 -35 36 -7 -58 -44 -14
-72 -35 63 28 23 52 -105 8
17 -25 42 -15 -9 -64 44 38
36 -2 -51 22 -10 53 -45 -45
-10 9 -26 46 -34 32 17 -56
-33 -2 -61 93 30 127 22 -52
-39 -124 11 12 28 -26 -12 15
-34 -15 -36 -87 24 31 13 -45
14 -7 -18 24 -6 8 -12 22

mobilenet_0.25_128/conv_dw_9_bn/FusedBatchNormV3;mobilenet_0.25_128/conv_dw_9/depthwise;mobilenet_0.25_128/conv_dw_12/depthwise i1 [1, 3, 3, 128]
00000000: fb13 8103 f7fe 0106 e20a f102 e801 f8ee
00000010: 15fc cf08 0120 01f6 05e7 04dc 09fc ffd6
00000020: fa2a f603 3bfa 02d8 020b e82a 8cfc b3f5
00000030: f4fd f8f8 e622 ec03 0105 fa09 fc09 f10c
00000040: fc17 fdfd 0700 00fb 46fe 0cfe 96b8 04ed
00000050: dbdd 1906 06d3 f6e2 f7fd d5fc 1315 b4db
00000060: 05fd 0f07 0006 02fc 0402 29e1 1714 04f8
00000070: 1816 4b07 ff0a 2ef4 1bf8 f7fd 1a01 0205
00000080: fde6 18ed 04fe f6ff cb01 f3ef c9e6 fe32
00000090: 7fe9 f3fe 2313 04be 0c81 cdfa 047f f70f
000000a0: f257 fc05 7f07 f981 22f6 1ff7 8150 8bec
000000b0: 4508 00fd 8452 02f7 ed07 e111 0cf4 dd7f
000000c0: ed38 f2df f412 f4ec 3df6 fdfb 0243 00de
000000d0: b9b0 7f0b de96 f1c9 dce6 9020 011e 8161
000000e0: fbfe 167f 0916 f7e6 edf2 0fc0 f019 0df0
000000f0: 3876 1822 ef18 74fd 351e d4e8 32f3 fbeb
-5 19 -127 3 -9 -2 1 6
-30 10 -15 2 -24 1 -8 -18
21 -4 -49 8 1 32 1 -10
5 -25 4 -36 9 -4 -1 -42
-6 42 -10 3 59 -6 2 -40
2 11 -24 42 -116 -4 -77 -11
-12 -3 -8 -8 -26 34 -20 3
1 5 -6 9 -4 9 -15 12
-4 23 -3 -3 7 0 0 -5
70 -2 12 -2 -106 -72 4 -19
-37 -35 25 6 6 -45 -10 -30
-9 -3 -43 -4 19 21 -76 -37
5 -3 15 7 0 6 2 -4
4 2 41 -31 23 20 4 -8
24 22 75 7 -1 10 46 -12
27 -8 -9 -3 26 1 2 5
-3 -26 24 -19 4 -2 -10 -1
-53 1 -13 -17 -55 -26 -2 50
127 -23 -13 -2 35 19 4 -66
12 -127 -51 -6 4 127 -9 15
-14 87 -4 5 127 7 -7 -127
34 -10 31 -9 -127 80 -117 -20
69 8 0 -3 -124 82 2 -9
-19 7 -31 17 12 -12 -35 127
-19 56 -14 -33 -12 18 -12 -20
61 -10 -3 -5 2 67 0 -34
-71 -80 127 11 -34 -106 -15 -55
-36 -26 -112 32 1 30 -127 97
-5 -2 22 127 9 22 -9 -26
-19 -14 15 -64 -16 25 13 -16
56 118 24 34 -17 24 116 -3
53 30 -44 -24 50 -13 -5 -21

mobilenet_0.25_128/conv_pw_9/Conv2D i1 [128, 1, 1, 128]
00000000: eef6 e9fd fce2 2aa6 14f4 e802 e7bf 22fd
00000010: 0106 e9d6 022f 3611 35b9 2cbd c509 e519
00000020: e2f3 f92d 1c1f fee5 ea27 1812 1b1e 0155
00000030: ef02 14c3 0716 10ea 7f22 0301 4b1e ec73
00000040: 20ed ea24 2103 d4c8 02ee 430e 1008 11e8
00000050: e01f e613 4017 d1f8 0d17 d6ee fee6 161e
00000060: 6a54 f40f 0023 e7ad 2e06 2102 2957 5eef
00000070: d62a f71a 692c ee61 380c 4917 0435 08f1
00000080: d3ce 2321 482f 0227 1f0c 0b29 1bc8 a004
00000090: e330 35f3 4ff9 3418 dbd4 32d2 1619 17e0
000000a0: 10de 1a61 08cf 13ad c255 5f05 0df1 57cb
000000b0: dbe6 19ff 0bee f625 1601 171a ef1e dd20
000000c0: 11f0 07ef fdbb 09f1 12f5 2cf1 f9ce 07dd
000000d0: 26ff d30d db56 f81b 0253 d3d4 fdd5 af04
000000e0: 0617 b500 0cd9 2f07 81c1 d80c fd17 471d
000000f0: 3d0f ecd7 87ea 2ff4 00de dce6 d701 fed2
-18 -10 -23 -3 -4 -30 42 -90
20 -12 -24 2 -25 -65 34 -3
1 6 -23 -42 2 47 54 17
53 -71 44 -67 -59 9 -27 25
-30 -13 -7 45 28 31 -2 -27
-22 39 24 18 27 30 1 85
-17 2 20 -61 7 22 16 -22
127 34 3 1 75 30 -20 115
32 -19 -22 36 33 3 -44 -56
2 -18 67 14 16 8 17 -24
-32 31 -26 19 64 23 -47 -8
13 23 -42 -18 -2 -26 22 30
106 84 -12 15 0 35 -25 -83
46 6 33 2 41 87 94 -17
-42 42 -9 26 105 44 -18 97
56 12 73 23 4 53 8 -15
-45 -50 35 33 72 47 2 39
31 12 11 41 27 -56 -96 4
-29 48 53 -13 79 -7 52 24
-37 -44 50 -46 22 25 23 -32
16 -34 26 97 8 -49 19 -83
-62 85 95 5 13 -15 87 -53
-37 -26 25 -1 11 -18 -10 37
22 1 23 26 -17 30 -35 32
17 -16 7 -17 -3 -69 9 -15
18 -11 44 -15 -7 -50 7 -35
38 -1 -45 13 -37 86 -8 27
2 83 -45 -44 -3 -43 -81 4
6 23 -75 0 12 -39 47 7
-127 -63 -40 12 -3 23 71 29
61 15 -20 -41 -121 -22 47 -12
0 -34 -36 -26 -41 1 -2 -46

mobilenet_0.25_128/conv_dw_10_bn/FusedBatchNormV3;mobilenet_0.25_128/conv_dw_10/depthwise;mobilenet_0.25_128/conv_dw_12/depthwise i1 [1, 3, 3, 128]
00000000: fb33 f63c ff00 fb11 f300 f8f4 0256 0501
00000010: 0aee 14fe f9fc e600 0411 fdf8 f002 9b24
00000020: fe7f f90f ee05 f7e1 06fc 661e 063c 06fb
00000030: 0005 03c7 e700 ff17 f907 7f06 f703 fbfc
00000040: fe14 f70a fbcf 2617 ff09 df02 14ec ffcf
00000050: 0500 79e8 06f8 05fd fb44 f8f6 02fb b611
00000060: ef11 fb17 fcf8 cc5b 0d07 fee9 0133 fc03
00000070: ff10 1c03 ff07 f1e1 f0ff f6f8 f8f9 0411
00000080: ff7f db9d fbfd f730 40e1 d5fc fe15 23f7
00000090: 20b1 ef7f fcf7 81d5 58ff fa02 fb11 187f
000000a0: db79 8123 fff5 1a03 fcf9 7f7f 2d7f f80e
000000b0: dcf2 03a3 18f9 8350 04d5 157f 0e13 0200
000000c0: 0afc e4c7 ee81 7fef 01ef de0f c981 f8a5
000000d0: 58d0 46bf f0e7 e3f2 077f d8f8 f0ad 877f
000000e0: f1ff 97e0 16ec 9af5 217f 07fd 207f 1f16
000000f0: 081c 0608 8216 bea9 1829 cff2 b4ed f12f
-5 51 -10 60 -1 0 -5 17
-13 0 -8 -12 2 86 5 1
10 -18 20 -2 -7 -4 -26 0
4 17 -3 -8 -16 2 -101 36
-2 127 -7 15 -18 5 -9 -31
6 -4 102 30 6 60 6 -5
0 5 3 -57 -25 0 -1 23
-7 7 127 6 -9 3 -5 -4
-2 20 -9 10 -5 -49 38 23
-1 9 -33 2 20 -20 -1 -49
5 0 121 -24 6 -8 5 -3
-5 68 -8 -10 2 -5 -74 17
-17 17 -5 23 -4 -8 -52 91
13 7 -2 -23 1 51 -4 3
-1 16 28 3 -1 7 -15 -31
-16 -1 -10 -8 -8 -7 4 17
-1 127 -37 -99 -5 -3 -9 48
64 -31 -43 -4 -2 21 35 -9
32 -79 -17 127 -4 -9 -127 -43
88 -1 -6 2 -5 17 24 127
-37 121 -127 35 -1 -11 26 3
-4 -7 127 127 45 127 -8 14
-36 -14 3 -93 24 -7 -125 80
4 -43 21 127 14 19 2 0
10 -4 -28 -57 -18 -127 127 -17
1 -17 -34 15 -55 -127 -8 -91
88 -48 70 -65 -16 -25 -29 -14
7 127 -40 -8 -16 -83 -121 127
-15 -1 -105 -32 22 -20 -102 -11
33 127 7 -3 32 127 31 22
8 28 6 8 -126 22 -66 -87
24 41 -49 -14 -76 -19 -15 47

mobilenet_0.25_128/conv_pw_10/Conv2D i1 [128, 1, 1, 128]
00000000: 01d9 f5fa 0e19 1ab2 2ded 1318 e314 f7f5
00000010: dc11 2bf4 06cd ece8 fe09 2e20 f9f4 19dd
00000020: df54 ee09 ce10 ebed 0240 e3eb 27e2 dc23
00000030: 29dc 030b 421b 0c37 f9ca ed11 f8fc e5e6
00000040: 2214 fdf8 00ff e5e3 e706 0fec f30a ec1a
00000050: 1d42 e84f da21 c218 ef03 3110 1f01 deea
00000060: 02fb f127 d3f7 0310 de1b ec4a fdea 15e9
00000070: 037f e605 fa08 03d0 03f0 ea0b c3f5 ebcc
00000080: f9f5 f9f1 0902 0ff2 f6f0 fb00 ed81 fcf9
00000090: f815 f609 faef e305 fcef 25fc 01fa 38f3
000000a0: f8d8 faf5 05f6 0025 f008 fbf8 f1f9 0503
000000b0: ff02 fd0e 0408 d30f faf1 dcfb f7f5 10f5
000000c0: 04f6 1a0a f1d6 01e8 00fc 29f6 04fd fbdc
000000d0: 2803 cb00 ff06 fe09 f8dd 0b01 10f4 ddf1
000000e0: f402 0ff5 0407 09fe fefe 04fb 02f9 02fd
000000f0: f6ff 05f8 fd18 03e6 fffe fef1 f709 02fc
1 -39 -11 -6 14 25 26 -78
45 -19 19 24 -29 20 -9 -11
-36 17 43 -12 6 -51 -20 -24
-2 9 46 32 -7 -12 25 -35
-33 84 -18 9 -50 16 -21 -19
2 64 -29 -21 39 -30 -36 35
41 -36 3 11 66 27 12 55
-7 -54 -19 17 -8 -4 -27 -26
34 20 -3 -8 0 -1 -27 -29
-25 6 15 -20 -13 10 -20 26
29 66 -24 79 -38 33 -62 24
-17 3 49 16 31 1 -34 -22
2 -5 -15 39 -45 -9 3 16
-34 27 -20 74 -3 -22 21 -23
3 127 -26 5 -6 8 3 -48
3 -16 -22 11 -61 -11 -21 -52
-7 -11 -7 -15 9 2 15 -14
-10 -16 -5 0 -19 -127 -4 -7
-8 21 -10 9 -6 -17 -29 5
-4 -17 37 -4 1 -6 56 -13
-8 -40 -6 -11 5 -10 0 37
-16 8 -5 -8 -15 -7 5 3
-1 2 -3 14 4 8 -45 15
-6 -15 -36 -5 -9 -11 16 -11
4 -10 26 10 -15 -42 1 -24
0 -4 41 -10 4 -3 -5 -36
40 3 -53 0 -1 6 -2 9
-8 -35 11 1 16 -12 -35 -15
-12 2 15 -11 4 7 9 -2
-2 -2 4 -5 2 -7 2 -3
-10 -1 5 -8 -3 24 3 -26
-1 -2 -2 -15 -9 9 2 -4

mobilenet_0.25_128/conv_dw_11_bn/FusedBatchNormV3;mobilenet_0.25_128/conv_dw_11/depthwise;mobilenet_0.25_128/conv_dw_12/depthwise i1 [1, 3, 3, 128]
00000000: df30 2208 fe02 d025 bd0b fdef 028f 4201
00000010: 9ac2 0002 03f4 2ae3 1538 f216 9bda 05fe
00000020: 1339 1bfa 100a 0183 c424 f8aa 1e2f 1a8b
00000030: 0406 d915 0df5 0c01 dff5 0dd5 29e1 03e2
00000040: 08f3 0c04 110b bfc0 e4d5 043c 0cfb f1f7
00000050: e203 028b 4612 30ea 19ed ff50 f41a 25fc
00000060: 10c3 69a4 f407 2a0d f912 06cd 0590 3111
00000070: f3dc 0be5 f0fb c824 4324 d140 12e6 fcf5
00000080: a905 6437 f5e4 8141 9a3e 17e3 e2e5 6514
00000090: e781 070d 03fc 4fb0 3975 bd00 8b81 28f6
000000a0: 3b42 12fd 1636 0d9a 307f e5a1 677f 7ff6
000000b0: 3018 ad3a 21b7 43ee 84e0 2681 35fb 81a8
000000c0: 7fdf 5ae9 3508 9781 c698 1975 fb12 dbf9
000000d0: 78f5 2581 263f 7fbf 427f 5ced d722 53f4
000000e0: 2190 3b9c 0d31 c04c 0347 01a5 fb81 7fd2
000000f0: f5bd 20ab 3c0e b930 7af3 c4f0 46a2 db35
-33 48 34 8 -2 2 -48 37
-67 11 -3 -17 2 -113 66 1
-102 -62 0 2 3 -12 42 -29
21 56 -14 22 -101 -38 5 -2
19 57 27 -6 16 10 1 -125
-60 36 -8 -86 30 47 26 -117
4 6 -39 21 13 -11 12 1
-33 -11 13 -43 41 -31 3 -30
8 -13 12 4 17 11 -65 -64
-28 -43 4 60 12 -5 -15 -9
-30 3 2 -117 70 18 48 -22
25 -19 -1 80 -12 26 37 -4
16 -61 105 -92 -12 7 42 13
-7 18 6 -51 5 -112 49 17
-13 -36 11 -27 -16 -5 -56 36
67 36 -47 64 18 -26 -4 -11
-87 5 100 55 -11 -28 -127 65
-102 62 23 -29 -30 -27 101 20
-25 -127 7 13 3 -4 79 -80
57 117 -67 0 -117 -127 40 -10
59 66 18 -3 22 54 13 -102
48 127 -27 -95 103 127 127 -10
48 24 -83 58 33 -73 67 -18
-124 -32 38 -127 53 -5 -127 -88
127 -33 90 -23 53 8 -105 -127
-58 -104 25 117 -5 18 -37 -7
120 -11 37 -127 38 63 127 -65
66 127 92 -19 -41 34 83 -12
33 -112 59 -100 13 49 -64 76
3 71 1 -91 -5 -127 127 -46
-11 -67 32 -85 60 14 -71 48
122 -13 -60 -16 70 -94 -37 53

mobilenet_0.25_128/conv_pw_11/Conv2D i1 [128, 1, 1, 128]
00000000: 30f0 f0e8 c226 1106 3c2d f508 cce1 0230
00000010: e5de 5bdd f703 1bf2 0a1a fcf4 1828 1016
00000020: 1f38 fbdb 0dd1 efff 1ece 6819 d451 4ced
00000030: 1fdf f8e6 13ed cb1a ec10 28e6 05f9 57dc
00000040: fa1a b4f2 fee2 ea0e c900 3f1e 4db6 f77f
00000050: f827 9ef8 ecee c8d0 ded4 e62d e0f4 4f3a
00000060: 2ff4 f2c4 e0f6 06f8 17dc f3eb 13f4 fb27
00000070: dfdd e21c 63fd 1d2a ed0b d5de f9ff d10a
00000080: 1e2c f6c9 cf21 4ee0 040b fe03 14f4 092a
00000090: 88f2 fec3 171d f7d8 3131 c0ff 4ae7 e5f7
000000a0: f2fe 25fc 20f4 30b3 d737 408d 2a24 e02a
000000b0: 7ffe 013a d02b f6fa dac4 bdf9 1d00 091b
000000c0: e9d8 d1bd f6d6 0f4c 2d2e 29c6 0e2f ed2e
000000d0: f6f8 3843 e9a4 5420 cc2d ba1e f5fb bfdf
000000e0: da59 e9f2 110c 0c5f 0be5 09f2 c31c 4bf8
000000f0: 4dd7 db2b 1b12 04ee 30c5 8a0f 0bce 37f0
48 -16 -16 -24 -62 38 17 6
60 45 -11 8 -52 -31 2 48
-27 -34 91 -35 -9 3 27 -14
10 26 -4 -12 24 40 16 22
31 56 -5 -37 13 -47 -17 -1
30 -50 104 25 -44 81 76 -19
31 -33 -8 -26 19 -19 -53 26
-20 16 40 -26 5 -7 87 -36
-6 26 -76 -14 -2 -30 -22 14
-55 0 63 30 77 -74 -9 127
-8 39 -98 -8 -20 -18 -56 -48
-34 -44 -26 45 -32 -12 79 58
47 -12 -14 -60 -32 -10 6 -8
23 -36 -13 -21 19 -12 -5 39
-33 -35 -30 28 99 -3 29 42
-19 11 -43 -34 -7 -1 -47 10
30 44 -10 -55 -49 33 78 -32
4 11 -2 3 20 -12 9 42
-120 -14 -2 -61 23 29 -9 -40
49 49 -64 -1 74 -25 -27 -9
-14 -2 37 -4 32 -12 48 -77
-41 55 64 -115 42 36 -32 42
127 -2 1 58 -48 43 -10 -6
-38 -60 -67 -7 29 0 9 27
-23 -40 -47 -67 -10 -42 15 76
45 46 41 -58 14 47 -19 46
-10 -8 56 67 -23 -92 84 32
-52 45 -70 30 -11 -5 -65 -33
-38 89 -23 -14 17 12 12 95
11 -27 9 -14 -61 28 75 -8
77 -41 -37 43 27 18 4 -18
48 -59 -118 15 11 -50 55 -16

mobilenet_0.25_128/conv_dw_12_bn/FusedBatchNormV3;mobilenet_0.25_128/conv_dw_12/depthwise i1 [1, 3, 3, 128]
00000000: 3f4d 4551 bb47 c46b 4757 c045 44b9 b73d
00000010: bd48 3b46 4cbe bfb8 44c2 4153 b99a a646
00000020: 4348 45bf b770 5154 bcb1 bf81 4ac6 45c2
00000030: bcc5 39bd 4842 be44 5dbf 5ebc 4a46 4644
00000040: c2bd 3f47 4a45 424d a440 4746 4165 bf43
00000050: b6b6 b348 c0c6 4146 3e46 463f 40bd 4899
00000060: c3c5 bc46 4c60 4e48 9850 413c 2037 bec0
00000070: b393 b73f 44ac 4448 4b40 3a27 81c0 bc43
00000080: 5662 5869 a45c ae7f 5969 ac59 5aa4 a54e
00000090: a85d 5364 63a7 a7a1 58ac 586c a281 9e5b
000000a0: 565e 5daa a27f 6a64 ad9a a9ad 65ac 5baf
000000b0: a5b1 4ea6 5758 ab58 78a7 76a2 5d59 5b59
000000c0: b4a9 525b 5e62 535e 814f 5b59 5278 a858
000000d0: a69c 9f61 a8ad 545a 5159 594d 55ac 5d81
000000e0: adb0 a357 627a 6058 8166 534f 2146 b6a8
000000f0: 9f8c a451 579d 5760 6356 502d b7ad aa5c
63 77 69 81 -69 71 -60 107
71 87 -64 69 68 -71 -73 61
-67 72 59 70 76 -66 -65 -72
68 -62 65 83 -71 -102 -90 70
67 72 69 -65 -73 112 81 84
-68 -79 -65 -127 74 -58 69 -62
-68 -59 57 -67 72 66 -66 68
93 -65 94 -68 74 70 70 68
-62 -67 63 71 74 69 66 77
-92 64 71 70 65 101 -65 67
-74 -74 -77 72 -64 -58 65 70
62 70 70 63 64 -67 72 -103
-61 -59 -68 70 76 96 78 72
-104 80 65 60 32 55 -66 -64
-77 -109 -73 63 68 -84 68 72
75 64 58 39 -127 -64 -68 67
86 98 88 105 -92 92 -82 127
89 105 -84 89 90 -92 -91 78
-88 93 83 100 99 -89 -89 -95
88 -84 88 108 -94 -127 -98 91
86 94 93 -86 -94 127 106 100
-83 -102 -87 -83 101 -84 91 -81
-91 -79 78 -90 87 88 -85 88
120 -89 118 -94 93 89 91 89
-76 -87 82 91 94 98 83 94
-127 79 91 89 82 120 -88 88
-90 -100 -97 97 -88 -83 84 90
81 89 89 77 85 -84 93 -127
-83 -80 -93 87 98 122 96 88
-127 102 83 79 33 70 -74 -88
-97 -116 -92 81 87 -99 87 96
99 86 80 45 -73 -83 -86 92

mobilenet_0.25_128/conv_pw_12/Conv2D i1 [256, 1, 1, 128]
00000000: dbdf cb0b 03ea 2c1f f400 d7fe 2a16 0fee
00000010: ef13 982e 1b3f 3501 d4fc aaf8 bf13 d301
00000020: 1320 4ff1 46e5 1717 b577 ad9a dd15 f617
00000030: efdc 11c9 cffb 2437 7fde bee9 0340 061a
00000040: 0009 4327 f5eb f8fe 57de 070d bf06 8d28
00000050: c9d3 29f8 bbce 0afd f5df 5ea7 18d8 fd4f
00000060: d02b d42c e6f6 b3ff 24e0 043b 5ec4 e021
00000070: cbf8 e8ab eaf5 0c1b 1cda cb5b 9435 03fa
00000080: 21d2 12df f9e5 ea25 fe02 fffc cddb 121e
00000090: 0f05 fe1e 09f7 e3fb dc02 0df8 f505 1215
000000a0: 15f8 f031 1315 00f9 15e5 313a f908 0f01
000000b0: 14f1 fdf2 0012 0a06 f002 2142 d6d0 0f2c
000000c0: fd09 1300 f8f4 fdee 0bf2 f701 f518 f716
000000d0: f4fa ca10 1511 f4d8 2c0e 1532 df07 020b
000000e0: ec02 1c2e 41f9 e53a 4ec5 d21c 32f5 e917
000000f0: 1f4a 0406 f711 1603 013f f17f eeac 040b
-37 -33 -53 11 3 -22 44 31
-12 0 -41 -2 42 22 15 -18
-17 19 -104 46 27 63 53 1
-44 -4 -86 -8 -65 19 -45 1
19 32 79 -15 70 -27 23 23
-75 119 -83 -102 -35 21 -10 23
-17 -36 17 -55 -49 -5 36 55
127 -34 -66 -23 3 64 6 26
0 9 67 39 -11 -21 -8 -2
87 -34 7 13 -65 6 -115 40
-55 -45 41 -8 -69 -50 10 -3
-11 -33 94 -89 24 -40 -3 79
-48 43 -44 44 -26 -10 -77 -1
36 -32 4 59 94 -60 -32 33
-53 -8 -24 -85 -22 -11 12 27
28 -38 -53 91 -108 53 3 -6
33 -46 18 -33 -7 -27 -22 37
-2 2 -1 -4 -51 -37 18 30
15 5 -2 30 9 -9 -29 -5
-36 2 13 -8 -11 5 18 21
21 -8 -16 49 19 21 0 -7
21 -27 49 58 -7 8 15 1
20 -15 -3 -14 0 18 10 6
-16 2 33 66 -42 -48 15 44
-3 9 19 0 -8 -12 -3 -18
11 -14 -9 1 -11 24 -9 22
-12 -6 -54 16 21 17 -12 -40
44 14 21 50 -33 7 2 11
-20 2 28 46 65 -7 -27 58
78 -59 -46 28 50 -11 -23 23
31 74 4 6 -9 17 22 3
1 63 -15 127 -18 -84 4 11

mobilenet_0.25_128/conv_dw_13_bn/FusedBatchNormV3;mobilenet_0.25_128/conv_dw_13/depthwise;mobilenet_0.25_128/conv_pw_13/Conv2D i1 [1, 3, 3, 256]
00000000: 8101 81ce 3395 86d7 3816 1d0c 5e1b a64e
00000010: 1a8b 3f7f ddd1 a6a4 d1a0 a9be 8181 81f7
00000020: 8539 8f8d 13be 4e49 3d92 99b3 75bf 2c5d
00000030: 52b2 7f01 dde4 c2aa 8cd0 bb5a a8b2 d415
00000040: aceb 9c7f 99a6 70f0 9928 6f76 ca35 25d7
00000050: e92e de60 e181 35df afee cb72 52d9 cc60
00000060: 2c43 10d6 2781 8408 3bbf 9ea6 6958 5b7f
00000070: d08b 8185 727f a97d 81e6 817f 9f52 ce29
00000080: 2244 ad55 af55 7f04 c384 1753 06e6 b1b7
00000090: 7f47 d99e 9e53 61f9 2564 81c3 c3e3 0559
000000a0: b1b6 7d7d 1bc1 5b32 a6cc d432 812f 59a6
000000b0: 05f0 c0ca d681 0089 41c2 fe00 e4ff e37f
000000c0: 7120 7f9c 2eee 814c 14a3 70dd e08f 6a65
000000d0: 8252 3aba db21 c00f 693c aaae a50a 1bbd
000000e0: ca10 81b9 2758 7f6b b4ee 5649 0ba6 4274
000000f0: 1d4d e52d fe73 9961 e05e 7f1f 60ee d654
-127 1 -127 -50 51 -107 -122 -41
56 22 29 12 94 27 -90 78
26 -117 63 127 -35 -47 -90 -92
-47 -96 -87 -66 -127 -127 -127 -9
-123 57 -113 -115 19 -66 78 73
61 -110 -103 -77 117 -65 44 93
82 -78 127 1 -35 -28 -62 -86
-116 -48 -69 90 -88 -78 -44 21
-84 -21 -100 127 -103 -90 112 -16
-103 40 111 118 -54 53 37 -41
-23 46 -34 96 -31 -127 53 -33
-81 -18 -53 114 82 -39 -52 96
44 67 16 -42 39 -127 -124 8
59 -65 -98 -90 105 88 91 127
-48 -117 -127 -123 114 127 -87 125
-127 -26 -127 127 -97 82 -50 41
34 68 -83 85 -81 85 127 4
-61 -124 23 83 6 -26 -79 -73
127 71 -39 -98 -98 83 97 -7
37 100 -127 -61 -61 -29 5 89
-79 -74 125 125 27 -63 91 50
-90 -52 -44 50 -127 47 89 -90
5 -16 -64 -54 -42 -127 0 -119
65 -62 -2 0 -28 -1 -29 127
113 32 127 -100 46 -18 -127 76
20 -93 112 -35 -32 -113 106 101
-126 82 58 -70 -37 33 -64 15
105 60 -86 -82 -91 10 27 -67
-54 16 -127 -71 39 88 127 107
-76 -18 86 73 11 -90 66 116
29 77 -27 45 -2 115 -103 97
-32 94 127 31 96 -18 -42 84

mobilenet_0.25_128/conv_pw_13/Conv2D i1 [256, 1, 1, 256]
00000000: 14de 0612 ebd8 f8cc 151d e9de f40c 3ed5
00000010: 16da e1ee edfe 1009 f13d fbdc 13d5 f5df
00000020: 1a26 0c05 281f d3f8 2fe6 f005 31fa 35cd
00000030: 3d25 da18 e321 e517 ebf9 1f34 0be9 1e1c
00000040: 13eb eac0 1035 0117 55c2 31f0 e1fe 1716
00000050: 3ff1 f6aa e9f9 21ab 204b da1d a817 05b0
00000060: f410 b91e d5d2 4618 d4f7 01ac 11cd 4e07
00000070: ea09 04a9 0909 07f2 9600 0fea fb16 e30c
00000080: f1a2 09fa fce1 dbf4 ebee 150b febb 2dcf
00000090: 2fc8 2ce8 0924 f8c0 d725 42b8 d3c4 24d1
000000a0: dd02 fcce f9db 1424 fb3a 141d dd03 a206
000000b0: cb26 0029 9f01 1cdb e3f6 d49e f9f4 0848
000000c0: 20f8 1a04 0c81 fde3 fce6 06f9 21ec 2525
000000d0: 15b3 f9e1 b5ed bb19 0dfa 0919 1cbf 1213
000000e0: 0aa6 21fe 2e0f 0615 f82e df0e f503 fae0
000000f0: f900 5310 be2f 02f6 23fb 003d ffd6 8a35
20 -34 6 18 -21 -40 -8 -52
21 29 -23 -34 -12 12 62 -43
22 -38 -31 -18 -19 -2 16 9
-15 61 -5 -36 19 -43 -11 -33
26 38 12 5 40 31 -45 -8
47 -26 -16 5 49 -6 53 -51
61 37 -38 24 -29 33 -27 23
-21 -7 31 52 11 -23 30 28
19 -21 -22 -64 16 53 1 23
85 -62 49 -16 -31 -2 23 22
63 -15 -10 -86 -23 -7 33 -85
32 75 -38 29 -88 23 5 -80
-12 16 -71 30 -43 -46 70 24
-44 -9 1 -84 17 -51 78 7
-22 9 4 -87 9 9 7 -14
-106 0 15 -22 -5 22 -29 12
-15 -94 9 -6 -4 -31 -37 -12
-21 -18 21 11 -2 -69 45 -49
47 -56 44 -24 9 36 -8 -64
-41 37 66 -72 -45 -60 36 -47
-35 2 -4 -50 -7 -37 20 36
-5 58 20 29 -35 3 -94 6
-53 38 0 41 -97 1 28 -37
-29 -10 -44 -98 -7 -12 8 72
32 -8 26 4 12 -127 -3 -29
-4 -26 6 -7 33 -20 37 37
21 -77 -7 -31 -75 -19 -69 25
13 -6 9 25 28 -65 18 19
10 -90 33 -2 46 15 6 21
-8 46 -33 14 -11 3 -6 -32
-7 0 83 16 -66 47 2 -10
35 -5 0 61 -1 -42 -118 53

mobilenet_0.25_128/conv_preds/Conv2D i1 [1000, 1, 1, 256]
00000000: 14e7 e7fa 182c d207 00e9 dd15 bf00 e7fe
00000010: e409 0de9 e415 f1f8 12da dff0 0cde ff21
00000020: 0311 d4dc d518 0ac1 18fa ef0d fdf3 54fc
00000030: 0fed f5f0 f5f4 20e5 230f f8f1 ead5 122c
00000040: 4df4 fc2f 3025 d8ff 1cf5 c479 e211 ed03
00000050: fa17 fa02 05e4 eae8 e6fd f2f1 28f2 fcd6
00000060: e703 07cf ffee fcf0 d00d 08ed e80f 18dc
00000070: e9dc 7a6d dc0a fdf5 e6e7 32e0 1101 dcf2
00000080: 0f18 f9ff 0ee5 2c1e 04fa faf5 fd03 1222
00000090: 1201 ebe4 fb00 2500 f9fd f5ff 046c eeeb
000000a0: ebe2 f824 f7e5 f6fa f5e2 ec0c 35eb eb11
000000b0: f74d e8ea f302 ffee 05ff e812 0eee 27c5
000000c0: ece7 e828 faf2 09e0 e6dc f309 fbf0 e82e
000000d0: 0d01 ed0c 1c17 d83b f409 ec08 1dff 282b
000000e0: d5fe ede4 f0f8 f7fc 3ef3 0fe8 12ff eee4
000000f0: f57f d1ee 1801 18fb 2220 160f ebfd 1ae8
20 -25 -25 -6 24 44 -46 7
0 -23 -35 21 -65 0 -25 -2
-28 9 13 -23 -28 21 -15 -8
18 -38 -33 -16 12 -34 -1 33
3 17 -44 -36 -43 24 10 -63
24 -6 -17 13 -3 -13 84 -4
15 -19 -11 -16 -11 -12 32 -27
35 15 -8 -15 -22 -43 18 44
77 -12 -4 47 48 37 -40 -1
28 -11 -60 121 -30 17 -19 3
-6 23 -6 2 5 -28 -22 -24
-26 -3 -14 -15 40 -14 -4 -42
-25 3 7 -49 -1 -18 -4 -16
-48 13 8 -19 -24 15 24 -36
-23 -36 122 109 -36 10 -3 -11
-26 -25 50 -32 17 1 -36 -14
15 24 -7 -1 14 -27 44 30
4 -6 -6 -11 -3 3 18 34
18 1 -21 -28 -5 0 37 0
-7 -3 -11 -1 4 108 -18 -21
-21 -30 -8 36 -9 -27 -10 -6
-11 -30 -20 12 53 -21 -21 17
-9 77 -24 -22 -13 2 -1 -18
5 -1 -24 18 14 -18 39 -59
-20 -25 -24 40 -6 -14 9 -32
-26 -36 -13 9 -5 -16 -24 46
13 1 -19 12 28 23 -40 59
-12 9 -20 8 29 -1 40 43
-43 -2 -19 -28 -16 -8 -9 -4
62 -13 15 -24 18 -1 -18 -28
-11 127 -47 -18 24 1 24 -5
34 32 22 15 -21 -3 26 -24
