package/PikaNN/TinyMaix/tools/tflite/mnist_valid_q.tflite (tflite, 6264 bytes, 4 tensors)

sequential_1/ftr0/Conv2D i1 [4, 3, 3, 1]
00000000: 2f5e 5b46 14c0 b081 c832 0ad8 6f09 8127
00000010: f6d6 7f79 50f9 162b 2b5e 60f3 8599 7a0a
00000020: 8167 6519
47 94 91 70 20 -64 -80 -127
-56 50 10 -40 111 9 -127 39
-10 -42 127 121 80 -7 22 43
43 94 96 -13 -123 -103 122 10
-127 103 101 25

sequential_1/ftr1/Conv2D i1 [8, 3, 3, 4]
00000000: f1ad dcc3 0d3d dcc1 282c bf99 3e81 9ff2
00000010: 71b5 d153 3ecc e948 a80f eae8 daf2 e91b
00000020: efdf d034 dd2b 563e c313 465b ba09 3d3f
00000030: af18 1248 811c d65d db20 db33 ac2f d455
00000040: b134 fb3f eb20 0010 81c9 df1a c0f2 f8d2
00000050: d31b 07ce d602 ff0c 9324 5009 bff8 1c11
00000060: d51b e6e1 d7f9 b8f6 caf7 c70e 1f49 b9d1
00000070: 2f47 b9d5 2019 e707 fa2b 7ff9 2e11 42fc
00000080: 2bf7 140c c737 a11b f806 f42f 0ee9 292f
00000090: 252b 1719 1e1d e0f9 07e4 0af7 0216 15f9
000000a0: eb31 088d dd16 25a9 081f a4cb a8f7 d981
000000b0: b45c 1ac0 eccd 753a 18cd 521c 51cd f803
000000c0: c487 0877 0c81 083b 40cd 0cf1 0cc2 8e45
000000d0: 659f 8a4b 24e4 9006 48ac d504 4181 c84b
000000e0: 10ad b34c 1ada 0f1c 05b6 fd4b fecb f444
000000f0: 0013 fa09 ffef fe38 eaea 0d33 b02e b0a1
-15 -83 -36 -61 13 61 -36 -63
40 44 -65 -103 62 -127 -97 -14
113 -75 -47 83 62 -52 -23 72
-88 15 -22 -24 -38 -14 -23 27
-17 -33 -48 52 -35 43 86 62
-61 19 70 91 -70 9 61 63
-81 24 18 72 -127 28 -42 93
-37 32 -37 51 -84 47 -44 85
-79 52 -5 63 -21 32 0 16
-127 -55 -33 26 -64 -14 -8 -46
-45 27 7 -50 -42 2 -1 12
-109 36 80 9 -65 -8 28 17
-43 27 -26 -31 -41 -7 -72 -10
-54 -9 -57 14 31 73 -71 -47
47 71 -71 -43 32 25 -25 7
-6 43 127 -7 46 17 66 -4
43 -9 20 12 -57 55 -95 27
-8 6 -12 47 14 -23 41 47
37 43 23 25 30 29 -32 -7
7 -28 10 -9 2 22 21 -7
-21 49 8 -115 -35 22 37 -87
8 31 -92 -53 -88 -9 -39 -127
-76 92 26 -64 -20 -51 117 58
24 -51 82 28 81 -51 -8 3
-60 -121 8 119 12 -127 8 59
64 -51 12 -15 12 -62 -114 69
101 -97 -118 75 36 -28 -112 6
72 -84 -43 4 65 -127 -56 75
16 -83 -77 76 26 -38 15 28
5 -74 -3 75 -2 -53 -12 68
0 19 -6 9 -1 -17 -2 56
-22 -22 13 51 -80 46 -80 -95

sequential_1/ftr2/Conv2D i1 [16, 3, 3, 8]
00000000: fbdf 0e01 1442 de32 f8fd 13de f905 ed43
00000010: 4916 fefb ff13 fb10 9949 1918 3df1 e613
00000020: fb28 31f8 491b f638 d6fd 23ca 1f03 c840
00000030: 8203 0df6 2d2a 16e9 ff10 81e1 f8fb 0505
00000040: 0710 a5f2 0417 d529 a4d0 325e 1182 2a42
00000050: aeba f958 2cf2 0c47 2de5 1203 083e 5309
00000060: ab3d 402f fde4 b06a a1c8 2e1a dd22 4b30
00000070: 05bc cc33 1711 0ae2 ca06 10d2 112a cbfc
00000080: 81eb e4f5 ecc8 0902 4a2b 04f4 480e f9bb
00000090: 4807 0dde d0ef 02e5 0a12 19e9 5208 24dc
000000a0: f461 29f7 17dd 99f2 dc34 cf22 dac2 1d13
000000b0: 7f11 fb19 1fe8 ed0a d6ce cd11 b430 1226
000000c0: 9d44 e0e9 10d3 031a fdc0 ed19 2308 11f2
000000d0: b0fd ae18 3623 ee02 f857 81e8 e965 5ae9
000000e0: fc3e 0005 f5e2 dffc cbf3 fd19 bdb5 910f
000000f0: 848a 9233 f7f4 10b6 5cd6 d90d f00d e93b
-5 -33 14 1 20 66 -34 50
-8 -3 19 -34 -7 5 -19 67
73 22 -2 -5 -1 19 -5 16
-103 73 25 24 61 -15 -26 19
-5 40 49 -8 73 27 -10 56
-42 -3 35 -54 31 3 -56 64
-126 3 13 -10 45 42 22 -23
-1 16 -127 -31 -8 -5 5 5
7 16 -91 -14 4 23 -43 41
-92 -48 50 94 17 -126 42 66
-82 -70 -7 88 44 -14 12 71
45 -27 18 3 8 62 83 9
-85 61 64 47 -3 -28 -80 106
-95 -56 46 26 -35 34 75 48
5 -68 -52 51 23 17 10 -30
-54 6 16 -46 17 42 -53 -4
-127 -21 -28 -11 -20 -56 9 2
74 43 4 -12 72 14 -7 -69
72 7 13 -34 -48 -17 2 -27
10 18 25 -23 82 8 36 -36
-12 97 41 -9 23 -35 -103 -14
-36 52 -49 34 -38 -62 29 19
127 17 -5 25 31 -24 -19 10
-42 -50 -51 17 -76 48 18 38
-99 68 -32 -23 16 -45 3 26
-3 -64 -19 25 35 8 17 -14
-80 -3 -82 24 54 35 -18 2
-8 87 -127 -24 -23 101 90 -23
-4 62 0 5 -11 -30 -33 -4
-53 -13 -3 25 -67 -75 -111 15
-124 -118 -110 51 -9 -12 16 -74
92 -42 -39 13 -16 13 -23 59

sequential_1/fc1/MatMul i1 [10, 16] scale=0.021470504 zero_point=0
00000000: 2ae2 29bf 0bdd 09fa 42b1 f9c2 46d2 0fb5
00000010: 34ea b317 dbfb bc0f 24df cef9 1ce0 bb38
00000020: b7e2 280c 0493 39e3 f5ee 3cc6 37f6 b641
00000030: caba d7ed c3fd 3a0d d21d 07a9 e906 5325
00000040: 25d7 1a31 f00e 8119 efc0 0a2d b533 fbe6
00000050: dc1d 0383 e248 d928 2331 34e6 ebdb dddc
00000060: e74e c0cf 253c 98b5 eccc 36c3 3c08 f2e3
00000070: 0df7 4144 901f 2207 cb0b b809 fec8 bf0b
00000080: bdf5 06d2 4dcc 07df 1ffb f92f e6a2 2600
00000090: f036 fce9 f3eb 0eb0 bd3f c61c ca4d 02f4
0.9017612 -0.6441151 0.8802907 -1.3955828 0.23617554 -0.75146765 0.19323453 -0.12882303
1.4170532 -1.6961699 -0.15029353 -1.3311713 1.5029353 -0.9876432 0.32205755 -1.6102878
1.1164662 -0.47235107 -1.6532288 0.4938216 -0.7944086 -0.10735252 -1.4599943 0.32205755
0.77293813 -0.7085266 -1.0735252 -0.15029353 0.6011741 -0.6870561 -1.4814647 1.2023482
-1.5673468 -0.6441151 0.85882014 0.25764605 0.085882016 -2.3402848 1.2238188 -0.6226446
-0.23617554 -0.38646907 1.2882302 -1.2452892 1.1808777 -0.21470504 -1.5888172 1.3955828
-1.1594073 -1.5029353 -0.8802907 -0.40793958 -1.3097007 -0.06441151 1.2452892 0.27911654
-0.9876432 0.6226446 0.15029353 -1.8679339 -0.4938216 0.12882303 1.7820518 0.7944086
0.7944086 -0.8802907 0.5582331 1.0520546 -0.34352806 0.30058706 -2.726754 0.5367626
-0.36499858 -1.3741122 0.21470504 0.9661727 -1.6102878 1.0949957 -0.10735252 -0.5582331
-0.77293813 0.6226446 0.06441151 -2.683813 -0.6441151 1.5458763 -0.83734965 0.85882014
0.75146765 1.0520546 1.1164662 -0.5582331 -0.4508806 -0.7944086 -0.75146765 -0.77293813
-0.5367626 1.6746993 -1.3741122 -1.0520546 0.7944086 1.2882302 -2.2329323 -1.6102878
-0.42941007 -1.1164662 1.1594073 -1.3097007 1.2882302 0.17176403 -0.30058706 -0.6226446
0.27911654 -0.19323453 1.3955828 1.4599943 -2.4046965 0.66558564 0.72999716 0.15029353
-1.1379367 0.23617554 -1.5458763 0.19323453 -0.042941008 -1.2023482 -1.3955828 0.23617554
-1.4385238 -0.23617554 0.12882303 -0.9876432 1.6532288 -1.1164662 0.15029353 -0.7085266
0.66558564 -0.10735252 -0.15029353 1.0091137 -0.5582331 -2.0182273 0.81587917 0.0
-0.34352806 1.1594073 -0.085882016 -0.4938216 -0.27911654 -0.4508806 0.30058706 -1.7176403
-1.4385238 1.3526417 -1.2452892 0.6011741 -1.1594073 1.6532288 0.042941008 -0.25764605
