port/linux/package/pikascript/pikascript-lib/PikaNN/TinyMaix/tools/tflite/mnist_valid_f.tflite (tflite, 9292 bytes, 8 tensors)

fc1/bias f4 [10]
000000 17 45 5e be 9c f6 00 3f a2 9c b7 bd f7 9e 43 bd
       -0.21706043 0.50376296 -0.08965422 -0.047759023
000010 2a 0f ac be a0 49 e0 3d 8c 40 00 be 89 77 9b bd
       -0.3360532 0.10951543 -0.12524623 -0.07591159
000020 17 fe 08 3e 33 da e1 3d
       0.13378178 0.11027946

fc1/MatMul f4 [10, 16]
000000 dd 2c 69 3f 39 93 24 bf 0e 89 63 3f 9f 7c b3 bf
       0.9108408 -0.64287144 0.88881004 -1.4022406
000010 2a 7d 7c 3e 0a a3 41 bf 44 d1 4a 3e 24 dd 07 be
       0.24657121 -0.756394 0.19806391 -0.13267952
000020 df c9 b5 3f d1 b1 d8 bf c6 b2 13 be c0 64 aa bf
       1.4202231 -1.6929265 -0.14423665 -1.3311996
000030 b9 a7 c1 3f cc 2a 7b bf 72 20 a0 3e 6e a0 ce bf
       1.512931 -0.9811218 0.31274754 -1.6142709
000040 c3 dc 8f 3f 60 f5 f6 be 05 52 d3 bf eb 75 fa 3e
       1.1239246 -0.4823408 -1.6509405 0.4891809
000050 7f c7 4d bf 7f bd e6 bd ee a9 bb bf 3e f1 a4 3e
       -0.8038253 -0.11266612 -1.4661233 0.32215303
000060 16 de 47 3f 9f cc 36 bf 42 c0 8a bf 00 b0 1d be
       0.7807325 -0.71405977 -1.0839922 -0.1539917
000070 be f6 19 3f a2 f7 2f bf 8c e9 bc bf 57 d8 99 3f
       0.60142124 -0.6873723 -1.4758773 1.2019147
000080 d3 9d c8 bf 62 bc 26 bf 69 72 5b 3f 9c 2d 84 3e
       -1.5673164 -0.651312 0.8572145 0.25816047
000090 cf 90 b1 3d 0b 0a 16 c0 59 58 9d 3f a6 1f 20 bf
       0.08670198 -2.344363 1.2292587 -0.6254829
0000a0 1b da 6f be 08 c5 c7 be 7d 8f a5 3f 77 58 9f bf
       -0.23423044 -0.3901751 1.2934414 -1.2448872
0000b0 86 f4 96 3f e6 6e 5a be f8 41 ca bf 9c 45 b2 3f
       1.1793373 -0.21331367 -1.5801382 1.3927493
0000c0 8b a2 95 bf 7c 98 c0 bf 6f ec 62 bf a6 62 cb be
       -1.1690229 -1.5046535 -0.8864202 -0.397237
0000d0 d9 30 a7 bf 6a eb 76 bd 11 02 9f 3f 03 ff 8b 3e
       -1.3061782 -0.060283102 1.2422506 0.27342996
0000e0 33 12 7e bf 8c 8f 1d 3f 43 fa 19 3e 27 95 ef bf
       -0.9924652 0.6154716 0.15036874 -1.8717393
0000f0 15 9d f7 be 4b 04 09 3e 45 cc e4 3f 08 f8 4b 3f
       -0.48362032 0.13380544 1.7874838 0.7967534
000100 48 c1 48 3f f9 5a 63 bf 7a 67 0f 3f 89 22 87 3f
       0.78419924 -0.8881069 0.5601727 1.0557414
000110 b2 ba ab be 53 d4 97 3e 23 83 2e c0 56 ed 07 3f
       -0.33540875 0.29654178 -2.726754 0.5309652
000120 9a ba b9 be 6f 5d b0 bf 34 86 5b 3e e5 42 76 3f
       -0.36275178 -1.3778514 0.21437913 0.9619582
000130 49 4c ce bf 6e d2 8b 3f 03 10 da bd ef d2 0e bf
       -1.611703 1.0923593 -0.10647585 -0.5579061
000140 f8 09 47 bf a8 f8 20 3f f0 14 8f 3d dc cb 2b c0
       -0.77749586 0.6287942 0.069864154 -2.6843176
000150 8f 47 26 bf 8b 13 c5 3f 72 6e 58 bf 4d 59 59 3f
       -0.6495294 1.5396589 -0.84543526 0.8490189
000160 82 bd 3f 3f ca b3 87 3f 38 c8 8d 3f 8d d8 0f bf
       0.7489854 1.0601742 1.1076727 -0.56189805
000170 18 49 e9 be 49 03 4e bf db 25 3e bf c8 66 45 bf
       -0.4556358 -0.8047376 -0.7427651 -0.77109957
000180 93 f8 08 bf a3 b5 d5 3f 25 91 ae bf bb 63 85 bf
       -0.53504294 1.6696056 -1.3638045 -1.042106
000190 a0 83 4a 3f 0b 84 a4 3f ad 81 0e c0 10 32 cd bf
       0.79107094 1.2852796 -2.2266648 -1.6030903
0001a0 bb c4 db be d3 e3 8e bf 7b 94 95 3f 3b 79 a8 bf
       -0.4292353 -1.1163276 1.1685938 -1.3161997
0001b0 e9 5d a5 3f be be 37 3e d0 18 9d be 2c 3d 1f bf
       1.2919284 0.17943856 -0.30682993 -0.62202716
0001c0 c0 cc 91 3e 1c 5c 48 be ed 19 b2 3f 36 b3 ba 3f
       0.28476524 -0.19566387 1.3914162 1.4585941
0001d0 a9 5a 1a c0 62 6f 2b 3f d9 91 3a 3f 41 01 12 3e
       -2.4117835 0.6696683 0.72878796 0.14258291
0001e0 0f 33 92 bf 2c 39 74 3e f4 86 c6 bf 7d d7 4c 3e
       -1.1421832 0.23849934 -1.5509934 0.20004077
0001f0 7a 55 22 bd e9 a0 9a bf 44 eb b1 bf 9e 3c 67 3e
       -0.039632298 -1.2080356 -1.3899922 0.22581717
000200 77 59 b8 bf 35 7d 69 be b6 3a 04 3e 4d 32 7c bf
       -1.4402303 -0.22801669 0.12913021 -0.9851425
000210 a0 cd d3 3f 74 03 8e bf 41 1d 1e 3e 79 b8 36 bf
       1.6547127 -1.1094804 0.15440847 -0.7137523
000220 53 1a 29 3f c2 2d d7 bd ca e9 1c be ca f9 7f 3f
       0.6605579 -0.105067745 -0.15323558 0.9999052
000230 bc 8d 0e bf 23 87 01 c0 31 99 50 3f a6 58 02 3c
       -0.5568502 -2.023873 0.8148375 0.007955706
000240 10 58 b1 be 3c 97 93 3f 5c 4a b0 bd 2b 54 fa be
       -0.346375 1.1530528 -0.08607933 -0.4889234
000250 b5 ea 8a be 99 cc ea be ac 62 97 3e b2 ad dc bf
       -0.27132192 -0.4585922 0.29567468 -1.7240508
000260 0c 71 b7 bf 3e 97 ac 3f 06 7b a0 bf f7 93 1c 3f
       -1.4331374 1.3483655 -1.2537544 0.61163276
000270 6d b9 93 bf 81 72 d3 3f 7e 2a 17 3d 77 bc 88 be
       -1.1540962 1.6519319 0.036905758 -0.26706287

relu0/Relu;FusedBatchNormV3;ftr0/bias;ftr0/BiasAdd;ftr0/Conv2D f4 [4]
000000 30 20 c3 bc 10 01 69 bd 7d b8 95 3d 98 a1 0e bd
       -0.02381906 -0.05688578 0.07310579 -0.034822077

relu1/Relu;FusedBatchNormV3;ftr1/bias;ftr1/BiasAdd;ftr1/Conv2D f4 [8]
000000 3f 7c 78 3f ce 8a 18 3e fc 6c b1 3f 58 4d c3 bd
       0.97064584 0.148967 1.3861384 -0.095362365
000010 6e 7e 22 3f 2a f6 49 3f fe b2 5e 3f 46 45 3f 3f
       0.63474166 0.7889124 0.8699187 0.7471508

activation/Relu;FusedBatchNormV3;ftr2/bias;ftr2/BiasAdd;ftr2/Conv2D f4 [16]
000000 a7 bd 25 c0 45 76 94 bf c8 99 43 3f 94 57 97 40
       -2.5897005 -1.1598593 0.76406527 4.7294407
000010 ae e8 a2 40 1a f5 8e 3f aa 30 24 40 95 98 bd 3f
       5.0909033 1.1168549 2.5654702 1.4812189
000020 e3 97 4b c0 b4 52 0d 40 35 b3 7d bd 4f c0 98 3e
       -3.1811454 2.2081728 -0.061938483 0.2983422
000030 9e bf 55 40 43 28 48 3f c8 59 cf 40 a5 a3 8f c0
       3.3398204 0.78186435 6.4797096 -4.488726

ftr0/Conv2D f4 [4, 3, 3, 1]
000000 5e 53 14 3f 66 8e 94 3f eb 5d 8f 3f 71 1f 5d 3f
       0.5793971 1.1605957 1.1200536 0.863761
000010 d6 54 81 3e eb 3e 4a bf 87 3c 7d bf 8e e2 c8 bf
       0.25260037 -0.79002255 -0.9892048 -1.5694139
000020 f3 4a 30 bf b0 72 54 3f 42 dc 24 3e 6a 0a 2a bf
       -0.68864363 0.829875 0.16099647 -0.6642214
000030 6c 7f eb 3f 58 89 13 3e 2a 9e 06 c0 b6 f6 25 3f
       1.8398261 0.14407861 -2.1034036 0.64829576
000040 2c 5c 2f be 8c a0 33 bf 02 07 44 3f 4b 1c 3a 3f
       -0.17125005 -0.7016685 0.76573193 0.7269942
000050 39 82 f7 3e 9c 2d 36 bd 80 6a 09 3e 29 47 85 3e
       0.4834154 -0.04447709 0.13419533 0.26030853
000060 97 0c 85 3e 43 88 10 3f 30 dc 14 3f 00 24 21 be
       0.25986168 0.5645792 0.5814848 -0.15736389
000070 8b 37 c1 bf 2a 7b a1 bf cc 30 bf 3f 4c a8 03 3e
       -1.5095075 -1.2615712 1.4936767 0.12857169
000080 26 38 c7 bf 21 19 a2 3f 82 a0 9e 3f c4 5f 9e 3e
       -1.556401 1.2663919 1.2392733 0.30932438

ftr1/Conv2D f4 [8, 3, 3, 4]
000000 0f 71 81 bd 56 e1 b4 be 1f 2e 1b be fa 4a 85 be
       -0.06320392 -0.35328168 -0.15154313 -0.26033765
000010 25 d2 68 3d b2 0a 84 3e 0c db 1b be 5a bc 89 be
       0.056841034 0.2578941 -0.15220279 -0.26901513
000020 17 30 2c 3e 2c 11 3e 3e b6 5e 8c be a7 ff df be
       0.1681522 0.18561238 -0.2741601 -0.43749735
000030 52 43 87 3e f5 ca 09 bf 75 8b d3 be 0c c7 77 bd
       0.2641855 -0.5382531 -0.41317335 -0.06049256
000040 b3 92 f4 3e 53 d9 a2 be cc e0 4b be b6 85 b3 3e
       0.47768173 -0.3180643 -0.19909972 0.3506295
000050 4d 41 87 3e a9 f2 60 be d2 84 c4 bd 89 7c 9c 3e
       0.26417008 -0.21967568 -0.09595646 0.30563763
000060 5b 46 bf be 83 7d 81 3d ee 7e c0 bd 4a c9 d2 bd
       -0.37358364 0.063227676 -0.0939921 -0.10292299
000070 bc 1a 26 be e4 82 71 bd ca b9 c8 bd 9d 03 e8 3d
       -0.16221136 -0.058962718 -0.098010615 0.11328814
000080 a4 28 95 bd 47 00 0f be 91 65 4f be 73 e7 60 3e
       -0.07283142 -0.1396495 -0.20253588 0.21963291
000090 b1 42 c9 bd 91 56 f5 3d 04 9d 74 3e 09 89 31 3e
       -0.098271735 0.11979402 0.23888022 0.17337431
0000a0 49 30 2f be 95 57 54 3d d4 9c 48 3e 16 ba 81 3e
       -0.17108263 0.051841337 0.19591075 0.25337285
0000b0 f2 b5 47 be 87 51 d5 3c c0 77 2f 3e ef 8b 34 3e
       -0.19503 0.026039852 0.17135525 0.17631505
0000c0 75 bf 67 be 85 59 8b 3d 16 f9 4f 3d 7b 98 4c 3e
       -0.22631629 0.06804184 0.050774656 0.19980042
0000d0 8e 3b b5 be 2c 13 9f 3d 14 30 f0 bd ea 39 84 3e
       -0.35397 0.077673286 -0.1172792 0.25825435
0000e0 7c df d1 bd 7b 16 b5 3d 1f dd d2 bd 40 b0 11 3e
       -0.102477044 0.088421784 -0.10296082 0.1422739
0000f0 08 b7 70 be 7e 47 07 3e 95 45 fc bd e4 a3 71 3e
       -0.23507321 0.13210866 -0.12317959 0.23597676
000100 2b 16 61 be 17 68 13 3e 7d e7 6a bc b7 e5 34 3e
       -0.21981113 0.14395176 -0.014337418 0.17665754
000110 b0 9a 6a bd 93 1a b5 3d 12 56 75 ba 8b 24 34 3d
       -0.057276428 0.08842959 -0.0009358834 0.043980163
000120 d5 aa 47 bf 25 64 ac be e4 90 4e be 97 8e 21 3e
       -0.77995044 -0.33670154 -0.20172459 0.1577705
000130 ea fe c9 be 11 59 b6 bd 91 52 49 bd 50 1e 8f be
       -0.39452296 -0.08903707 -0.049151007 -0.27952814
000140 11 37 8c be bc 7b 2c 3e a1 e7 33 3d 45 bf 9b be
       -0.27385762 0.16844076 0.04392207 -0.30419365
000150 c0 d7 82 be a2 d5 69 3c ce ee 0c bc 2c 24 91 3d
       -0.2555523 0.014272125 -0.008601857 0.07086977
000160 b3 ff 2a bf 65 ef 62 3e dd ce fc 3e 94 90 60 3d
       -0.66796416 0.22161634 0.49376574 0.05482538
000170 06 97 cb be 42 ff 51 bd 96 31 2e 3e 9d 22 da 3d
       -0.3976366 -0.051268823 0.17011103 0.10651133
000180 92 da 85 be 97 68 2a 3e a2 e5 21 be 8e 6f 40 be
       -0.26143318 0.1664146 -0.15810254 -0.18792555
000190 b6 cd 80 be 46 37 27 bd 56 90 e1 be 60 5d 81 bd
       -0.25156945 -0.040824197 -0.44055432 -0.06316638
0001a0 c1 91 aa be 16 a1 63 bd 84 31 b2 be c0 0f ad 3d
       -0.33314326 -0.055573545 -0.34803402 0.0845027
0001b0 b6 14 0e 3e f7 35 a6 3e 11 0f a1 be 47 0a 56 be
       0.13875088 0.32463047 -0.31456807 -0.20902358
0001c0 f6 ed 55 3e 8a 5e a1 3e e2 52 a0 be 75 ef 42 be
       0.20891556 0.3151744 -0.31313235 -0.19036658
0001d0 0b 76 13 3e f1 a1 e1 3d 07 92 df bd 9d 92 07 3d
       0.14400499 0.11017216 -0.109165244 0.033098806
0001e0 e1 2a e2 bc 2b d4 42 3e a0 2c 10 3f 8b 36 fb bc
       -0.027608337 0.19026248 0.5631809 -0.030665657
0001f0 74 4f 50 3e 18 0a 96 3d a3 4c 95 3e 0a 72 96 bc
       0.20342809 0.07326144 0.29160032 -0.018364925
000200 03 91 44 3e 8a 66 23 bd 94 12 b2 3d 97 a5 53 3d
       0.19195943 -0.03989271 0.0869495 0.05167159
000210 42 bf 81 be 25 c5 77 3e 65 d7 d6 be ce 6e f4 3d
       -0.2534123 0.24196298 -0.41961208 0.11935197
000220 48 b4 0c bd ab 14 d5 3c 43 02 5a bd 1b c9 56 3e
       -0.034351617 0.026010832 -0.053224813 0.20975153
000230 2a cf 7b 3d a3 1a cd bd e7 f7 37 3e 15 cf 54 3e
       0.061476864 -0.10014846 0.17965661 0.2078212
000240 cc 11 fc 3d b1 42 11 3e 13 90 9c 3d d1 5a a5 3d
       0.12308082 0.14185597 0.076446675 0.080739625
000250 ad 57 cc 3d 03 40 c2 3d 39 10 d7 bd 14 6a b8 bc
       0.0997766 0.094848655 -0.10501141 -0.02251152
000260 f8 19 c8 3c e4 e8 be bd 1a 49 09 3d 9a 09 ef bc
       0.024426445 -0.09321764 0.03351698 -0.029179383
000270 2f 57 ba 3b 58 fe 94 3d 56 ae 8d 3d ef dd be bc
       0.0056866626 0.07275075 0.069180176 -0.023299186
000280 ce 05 8c bd 30 f3 24 3e 4c 76 ce 3c 5a 56 c1 be
       -0.06837045 0.16108394 0.025202893 -0.37761194
000290 5b c9 ec bd f3 ac 94 3d f9 63 fa 3d 75 9e 92 be
       -0.11561843 0.0725955 0.122260995 -0.28636518
0002a0 57 6e d6 3c 34 72 ce 3d 60 4d 9a be 78 e0 32 be
       0.026175661 0.10080376 -0.30137157 -0.1746844
0002b0 fd 78 93 be 8e 58 f8 bc 8a f5 01 be 4b ef d5 be
       -0.28803244 -0.030315664 -0.12691322 -0.4178413
0002c0 11 63 7f be ba b8 9b 3e 17 f9 af 3d 05 17 57 be
       -0.24940135 0.30414373 0.08592432 -0.21004875
0002d0 bc 98 96 bd f1 56 3b be 24 6c d7 3e 4d 0a 57 3e
       -0.073533505 -0.18294884 0.42074692 0.21000023
0002e0 9b 9c b4 3d bc a9 3b be 7a 6a 98 3e e9 ca cc 3d
       0.088189326 -0.18326467 0.29768735 0.099996395
0002f0 57 30 96 3e 30 62 3b be cd 82 f0 bc a9 8f 2e 3c
       0.29333755 -0.18299174 -0.029359246 0.010654368
000300 19 8d 5c be 50 5a df be b6 27 f4 3c b1 a0 db 3e
       -0.215382 -0.4362359 0.029804092 0.42896035
000310 e3 a0 2d 3d d2 ce ea be 27 e6 e4 3c 21 c0 59 3e
       0.04238976 -0.45860916 0.027941776 0.21264698
000320 4e 00 6b 3e 8a 02 3c be 25 be 2e 3d a3 f1 5b bd
       0.22949335 -0.18360344 0.042661805 -0.05369724
000330 a9 28 31 3d fc 2e 64 be 69 53 d3 be fd 27 80 3e
       0.043251667 -0.22283548 -0.41274574 0.2503051
000340 d9 69 ba 3e ed b9 b3 be 78 42 da be c5 64 8a 3e
       0.3640888 -0.35102788 -0.42628837 0.27030006
000350 63 9d 05 3e d3 91 cc bd 5a 97 ce be d3 4f ae 3c
       0.1304832 -0.09988751 -0.40349847 0.021278298
000360 80 a8 b2 3e c2 f5 cf be 7c d4 54 be e0 d2 b1 3c
       0.3489418 -0.40617186 -0.20784181 0.021706998
000370 64 6a a2 3e d5 e6 1d bf 1b 29 8b be 10 50 b9 3e
       0.31721795 -0.61680347 -0.27179798 0.36193895
000380 6c 65 a2 3d c8 65 ce be b0 87 c0 be 67 32 bc 3e
       0.07929501 -0.40312028 -0.3760352 0.36757204
000390 c2 dd 00 3e d5 b4 3d be ab b2 96 3d f6 e6 0b 3e
       0.12584594 -0.18526013 0.07358297 0.13662323
0003a0 2d 13 bc 3c 63 dd b7 be eb 83 59 bc 44 54 bb 3e
       0.022958362 -0.35911092 -0.013276081 0.36587727
0003b0 09 31 10 bc 4a 5a 83 be 72 c8 68 bd a1 3a a9 3e
       -0.008800753 -0.25654823 -0.056831785 0.33052543
0003c0 ea d4 d9 ba 89 d3 bc 3d 0e 26 fd bc fb 0d 2d 3d
       -0.001661924 0.09220035 -0.030901935 0.04224966
0003d0 02 74 8a bb 6b 46 a7 bd 8a 9e 2e bc d6 4c 8c 3e
       -0.004225255 -0.08167728 -0.010657916 0.2740237
0003e0 c5 57 df bd ef 8e d8 bd 11 02 80 3d 0c 06 7f 3e
       -0.109054126 -0.105741374 0.06250394 0.2490465
0003f0 4e b4 96 be 4f 30 2e 3e 89 3f 96 be 7a 4e b2 be
       -0.29434437 0.17010616 -0.29345348 -0.34825498

ftr2/Conv2D f4 [16, 3, 3, 8]
000000 0d 43 e6 bd 34 ee 33 bf 56 36 9b 3e f5 d6 97 3c
       -0.11243258 -0.70285344 0.30314893 0.018535117
000010 d3 85 dc 3e 01 ba b3 3f 19 10 3b bf da c5 86 3f
       0.4307085 1.4041139 -0.7307144 1.052913
000020 77 26 26 be 2c be 81 bd 74 a7 c9 3e 1c fe 38 bf
       -0.1622561 -0.063351005 0.3938557 -0.7226274
000030 9a 9c 1d be e9 15 ed 3d 8d 22 d0 be 64 49 b6 3f
       -0.1539177 0.11576445 -0.4065136 1.4241147
000040 d7 49 c5 3f 19 ae ee 3e 19 c5 41 bd 11 a7 d7 bd
       1.5413159 0.466172 -0.047307108 -0.10529912
000050 16 53 a8 bc ac 77 cb 3e c2 ba db bd 72 15 a9 3e
       -0.020547431 0.3973974 -0.107289806 0.33024174
000060 2c e8 0b c0 8a fa c6 3f 8c d2 05 3f 77 b3 00 3f
       -2.1860456 1.5545208 0.52274394 0.5027384
000070 cf a4 a4 3f 8e c1 9d be bd 75 0a bf 3d f5 cd 3e
       1.2862796 -0.30811733 -0.54085904 0.40226164
000080 cc 3e e4 bd 47 90 56 3f 6c 20 86 3f 8e 84 2b be
       -0.1114479 0.838139 1.0478644 -0.16749784
000090 8d f3 c4 3f b0 93 12 3f 17 41 5d be 31 db 96 3f
       1.5386826 0.57256603 -0.21606861 1.1785642
0000a0 06 4d 66 bf eb 14 96 bd 4f 80 3c 3f e6 7e 93 bf
       -0.8996128 -0.073282085 0.73633283 -1.1523101
0000b0 ea 5e 27 3f 07 31 86 3d 57 c2 98 bf 32 8f ae 3f
       0.653792 0.0655232 -1.1934308 1.363745
0000c0 87 ef 2a c0 da 76 6a 3d d7 0c 8a 3e e3 84 59 be
       -2.6708696 0.057242252 0.2696292 -0.21242099
0000d0 83 3f 73 3f 1f 5f 63 3f 0d 9f f0 3e d0 11 f6 be
       0.95018786 0.8881702 0.46996346 -0.48060465
0000e0 f9 7f c8 bc a1 68 af 3e bb 38 2c c0 bd c3 2a bf
       -0.024475085 0.34259513 -2.6909626 -0.6670492
0000f0 3f 29 2c be 31 2b d4 bd 58 e8 e4 3d cc 51 ee 3d
       -0.16812609 -0.103598006 0.111771286 0.11636695
000100 10 c3 10 3e 9c a8 ab 3e e4 08 f7 bf 05 d0 98 be
       0.1413691 0.33527076 -1.9299588 -0.29846206
000110 82 7b be 3d 51 db fe 3e e7 40 6a bf a7 1c 5e 3f
       0.09300901 0.497767 -0.91505283 0.8676247
000120 f2 7b a6 bf 0a 13 2d bf 73 cd 34 3f dc 64 aa 3f
       -1.3006575 -0.67607176 0.7062599 1.331203
000130 f3 e2 78 3e b2 d1 e4 bf bb ac 17 3f 95 f4 6f 3f
       0.24305324 -1.7876494 0.5924794 0.9373258
000140 33 1e 94 bf 6f 58 7f bf 63 f5 be bd 14 94 9f 3f
       -1.1571716 -0.99744314 -0.093241476 1.2467065
000150 ff 60 1f 3f 59 93 4b be 92 4c 34 3e 2e f0 80 3f
       0.6225738 -0.19880427 0.17607334 1.0073297
000160 90 dd 23 3f ab 21 c1 be 95 24 85 3e 76 79 45 3d
       0.6400995 -0.37721 0.26004472 0.048211537
000170 ed c9 f1 3d 32 dc 61 3f c3 73 96 3f 6d f7 fa 3d
       0.118060924 0.88226616 1.1754078 0.12254224
000180 26 9c 99 bf cd 4e 5e 3f eb c4 67 3f 17 3c 2b 3f
       -1.2000778 0.8683899 0.9053485 0.66888565
000190 72 e4 47 bd c8 7b ce be be 64 91 bf 78 62 c1 3f
       -0.048801847 -0.40328813 -1.1358869 1.5108175
0001a0 29 ca ab bf e9 a5 4c bf 26 2f 27 3f 77 0f bf 3e
       -1.3421069 -0.7994066 0.6530632 0.37316486
0001b0 41 fb 00 bf 5d 41 f6 3e f0 1f 88 3f 41 20 2f 3f
       -0.50383383 0.48096743 1.0634747 0.6840859
0001c0 e1 9d 88 3d e0 40 77 bf 16 59 3e bf 1e f0 39 3f
       0.06670738 -0.96583366 -0.74354684 0.72632015
0001d0 3b 89 aa 3e ee fb 70 3e cd 91 16 3e ee e9 d9 be
       0.33307824 0.23533604 0.14704056 -0.42561287
0001e0 4c c8 45 bf 7e af b1 3d da c3 6d 3e f7 8b 26 bf
       -0.77258754 0.086760506 0.23219243 -0.6505732
0001f0 6f 23 76 3e 11 29 19 3f bc 47 40 bf d5 b1 78 bd
       0.24036954 0.5982829 -0.7510946 -0.06071647
000200 34 c5 e6 bf 09 c0 95 be b3 80 cb be 6e 90 1d be
       -1.8028932 -0.29248074 -0.39746627 -0.15387127
000210 42 c5 94 be 60 11 4c bf a7 61 05 3e d8 16 de 3c
       -0.29056746 -0.7971401 0.13025533 0.027110502
000220 55 6f 86 3f b1 72 1c 3f ca ab 82 3d 70 c3 2b be
       1.0502726 0.61112505 0.063804224 -0.16773772
000230 ed ae 82 3f 23 88 48 3e f8 96 d7 bd 2d 90 7a bf
       1.0209633 0.19583182 -0.10526842 -0.97876245
000240 25 98 a9 3f 42 58 fa 3d da 25 6d 3e 0a bb 21 bf
       1.3249556 0.12223865 0.2315897 -0.63176024
000250 5f 73 60 bf 62 40 a1 be 05 8a 25 3d f6 ed fb be
       -0.8767604 -0.31494433 0.04041483 -0.49204987
000260 96 b5 42 3e c3 8f ad 3e 64 1a ed 3e 0b 29 d9 be
       0.19014582 0.33898744 0.46309197 -0.42414126
000270 74 94 c1 3f 56 17 1f 3e 18 82 2b 3f 0f ba 28 bf
       1.5123429 0.15536246 0.6699538 -0.659089
000280 f4 85 5d be 03 48 e5 3f 59 47 42 3f 94 b6 31 be
       -0.2163313 1.7912601 0.7589012 -0.17354804
000290 58 99 db 3e ae a9 25 bf 0b 8f f2 bf cf 50 88 be
       0.4289043 -0.64712036 -1.8949903 -0.26624152
0002a0 ef 78 29 bf 9a 33 75 3f dd 55 66 bf b9 a0 22 3f
       -0.66200155 0.9578186 -0.89974767 0.63526493
0002b0 2e 0f 33 bf 66 dc 91 bf 42 2f 0a 3f a3 5f b6 3e
       -0.6994504 -1.1395385 0.5397836 0.3561984
0002c0 be ab 15 40 ad 4d a1 3e d1 64 c3 bd 54 05 eb 3e
       2.3386073 0.31504574 -0.095407136 0.45902503
0002d0 62 84 11 3f 79 8d e4 be 59 63 af be 3d 69 41 3e
       0.56842625 -0.44639185 -0.34255484 0.18887801
0002e0 b5 6f 47 bf f4 82 69 bf 19 31 70 bf a0 04 9e 3e
       -0.77904826 -0.91215444 -0.9382492 0.30862904
0002f0 0a bf b2 bf 0e eb 63 3f 51 52 ac 3e 75 6f 34 3f
       -1.396455 0.8903054 0.33656552 0.7048257
000300 21 05 e9 bf 7a 00 a0 3f 85 97 14 bf 88 de da be
       -1.820469 1.2500145 -0.580437 -0.42747903
000310 2d ac 99 3e 0e 77 52 bf f0 6b 7a 3d a2 12 f6 3e
       0.30014172 -0.82212913 0.061138093 0.4806109
000320 33 95 76 bd 50 77 96 bf 64 05 b5 be e7 b5 ef 3e
       -0.06020088 -1.1755161 -0.35355675 0.46818468
000330 46 c2 23 3f 7d 0e 1a 3e 95 6d a2 3e a3 71 86 be
       0.6396831 0.1504459 0.3172423 -0.26258573
000340 72 32 bd bf 56 72 66 bd 84 ad c0 bf a0 d1 e5 3e
       -1.478102 -0.056261383 -1.5052953 0.44886494
000350 f8 50 80 3f 0d c7 24 3f db 20 aa be 95 71 27 3d
       1.002471 0.6436623 -0.33228192 0.040879805
000360 2a 5e cc bd c2 20 8d 3f 86 02 ce bf 1b ed 9a be
       -0.09978898 1.1025622 -1.609452 -0.30259022
000370 98 11 97 be 43 cd a3 3f 85 6c 91 3f 91 ca 97 be
       -0.2950561 1.2797016 1.1361243 -0.29646733
000380 71 07 53 bd b3 88 48 3f 60 a2 83 b8 18 27 84 3d
       -0.05152077 0.78333586 -6.2768115e-05 0.06452769
000390 10 9d 0f be bb 76 c1 be a6 3c d9 be 7f 0a 4b bd
       -0.14024758 -0.37785897 -0.42429084 -0.049570557
0003a0 bc d0 2a bf b5 1d 26 be cb 83 27 bd b4 14 a1 3e
       -0.66724753 -0.1622227 -0.040897172 0.31461108
0003b0 db 11 58 bf 57 79 72 bf 38 25 b4 bf 1b 36 48 3e
       -0.84402245 -0.947164 -1.4073858 0.1955189
0003c0 3e 78 c8 bf 1d c1 be bf 0a 72 b2 bf 23 42 25 3f
       -1.5661695 -1.4902683 -1.3941052 0.6455404
0003d0 fb 4e f6 bd 31 ca 16 be 5e 68 53 3e 55 6b 6f bf
       -0.12026783 -0.14725567 0.20645282 -0.9352315
0003e0 18 0c 95 3f 71 15 07 bf 50 6f fb be 1e 46 2a 3e
       1.1644316 -0.5276709 -0.49108362 0.1662831
0003f0 db ff 53 be 93 69 2a 3e e4 48 95 be f7 cd 3f 3f
       -0.2070307 0.16641836 -0.29157174 0.7492365
