port/linux/package/pikascript/pikascript-lib/PikaNN/TinyMaix/tools/tflite/mnist_dw_q.tflite (tflite, 7576 bytes, 5 tensors)

sequential/ftr0a/Conv2D i1 [4, 3, 3, 1]
00000000: 3d6a 6cf5 0813 a181 90e7 e299 9281 87bd
00000010: faf1 27da 9ee7 8ee3 81e9 1c7f 3d4f 1c3e
00000020: 176f 5f77
61 106 108 -11 8 19 -95 -127
-112 -25 -30 -103 -110 -127 -121 -67
-6 -15 39 -38 -98 -25 -114 -29
-127 -23 28 127 61 79 28 62
23 111 95 119

sequential/batch_normalization/FusedBatchNormV3;sequential/ftr0b/depthwise;sequential/ftr0b/BiasAdd;sequential/ftr0b/BiasAdd/ReadVariableOp/resource i1 [1, 3, 3, 4]
00000000: 36d8 567f 7fd9 1d34 48c9 d4d5 44fb 7a71
00000010: c007 814a 1a19 f8f7 295e fa1e 564f ceef
00000020: 317f 4a8b
54 -40 86 127 127 -39 29 52
72 -55 -44 -43 68 -5 122 113
-64 7 -127 74 26 25 -8 -9
41 94 -6 30 86 79 -50 -17
49 127 74 -117

sequential/ftr1a/Conv2D i1 [16, 3, 3, 4]
00000000: 0612 e7ea 0415 aed9 041c f4fc 02c4 d8ef
00000010: 1181 fc07 e11e f91b dbf4 dafb ac00 ea10
00000020: fc29 030a 1901 0b03 08e0 0c1e fdfe 0e24
00000030: 2517 c9a2 0e10 aba3 ca7f e1de 3890 cb18
00000040: ead3 c732 d950 dff2 d73f eff4 b6fd 097f
00000050: bc05 13c8 b61f 25b3 eff8 450e 133c 2edb
00000060: ef2a 0300 2e20 2708 2615 d166 ddf5 25d8
00000070: 0503 1898 050d b081 08fa fa19 2709 c8fe
00000080: ff12 e6e2 19f4 f6e0 0be8 cf04 08e6 e22c
00000090: b30f 2baf e9fc 10db a6e2 faaa 17ff 3d15
000000a0: ddf9 322b 81c7 0e2c 0bb9 2417 f80b 33e3
000000b0: bf20 ebd8 0d20 ac39 0d0a 0f32 3953 3842
000000c0: f529 25b1 e745 5ef4 1367 7f4e d630 17ae
000000d0: eee0 5708 d107 3adb fdb0 1cf3 0c81 2202
000000e0: 0d0a 18ff f9f8 080c 09dd fcfe 0cd5 07e8
000000f0: fcf9 f8ef 07fc e7ee 04f4 ddee 20c4 bbfd
6 18 -25 -22 4 21 -82 -39
4 28 -12 -4 2 -60 -40 -17
17 -127 -4 7 -31 30 -7 27
-37 -12 -38 -5 -84 0 -22 16
-4 41 3 10 25 1 11 3
8 -32 12 30 -3 -2 14 36
37 23 -55 -94 14 16 -85 -93
-54 127 -31 -34 56 -112 -53 24
-22 -45 -57 50 -39 80 -33 -14
-41 63 -17 -12 -74 -3 9 127
-68 5 19 -56 -74 31 37 -77
-17 -8 69 14 19 60 46 -37
-17 42 3 0 46 32 39 8
38 21 -47 102 -35 -11 37 -40
5 3 24 -104 5 13 -80 -127
8 -6 -6 25 39 9 -56 -2
-1 18 -26 -30 25 -12 -10 -32
11 -24 -49 4 8 -26 -30 44
-77 15 43 -81 -23 -4 16 -37
-90 -30 -6 -86 23 -1 61 21
-35 -7 50 43 -127 -57 14 44
11 -71 36 23 -8 11 51 -29
-65 32 -21 -40 13 32 -84 57
13 10 15 50 57 83 56 66
-11 41 37 -79 -25 69 94 -12
19 103 127 78 -42 48 23 -82
-18 -32 87 8 -47 7 58 -37
-3 -80 28 -13 12 -127 34 2
13 10 24 -1 -7 -8 8 12
9 -35 -4 -2 12 -43 7 -24
-4 -7 -8 -17 7 -4 -25 -18
4 -12 -35 -18 32 -60 -69 -3

sequential/batch_normalization_1/FusedBatchNormV3;sequential/ftr1b/depthwise;sequential/ftr1b/BiasAdd;sequential/ftr1b/BiasAdd/ReadVariableOp/resource i1 [1, 3, 3, 32]
00000000: b279 3cb3 a65c 555c ef54 2329 7f7f 3b81
00000010: 8181 7144 085f 7f7f 4c43 7f7f 8e7f 0b79
00000020: f857 1cca ae48 f637 ec7f a3f1 5052 15ba
00000030: bed9 5e0e 6f7f 4b55 2e29 6666 a175 7f40
00000040: 5a7f 5ad7 8154 7f7f ca7a 7f7f 5d6d 3e68
00000050: 9c9f 5f21 5d03 776f 230c 7a7a b869 4424
00000060: 7f54 2c95 977b 2835 af14 133c 3249 45b4
00000070: ae22 7f7f 615f 746c 7f7f 1d14 814c 497e
00000080: 432d 1a95 8b64 1323 cf48 2d50 242b 14cd
00000090: 16fe 625b 2a76 4652 666a 110a af3f 6a70
000000a0: 525f 59dd 8852 3f4b ec48 4448 3d4b 0c3a
000000b0: bf2c 7874 1f40 786d 3326 352d ab56 526b
000000c0: d947 4d81 bc6d 1f44 8114 3e5e 434d 70c5
000000d0: d15c 3368 7f24 5871 6d74 211a b333 255d
000000e0: e90e 179d d37f 0a1f da15 2d4e 282f 69b2
000000f0: ca30 194a f056 3a50 6b79 1612 bc45 607f
-78 121 60 -77 -90 92 85 92
-17 84 35 41 127 127 59 -127
-127 -127 113 68 8 95 127 127
76 67 127 127 -114 127 11 121
-8 87 28 -54 -82 72 -10 55
-20 127 -93 -15 80 82 21 -70
-66 -39 94 14 111 127 75 85
46 41 102 102 -95 117 127 64
90 127 90 -41 -127 84 127 127
-54 122 127 127 93 109 62 104
-100 -97 95 33 93 3 119 111
35 12 122 122 -72 105 68 36
127 84 44 -107 -105 123 40 53
-81 20 19 60 50 73 69 -76
-82 34 127 127 97 95 116 108
127 127 29 20 -127 76 73 126
67 45 26 -107 -117 100 19 35
-49 72 45 80 36 43 20 -51
22 -2 98 91 42 118 70 82
102 106 17 10 -81 63 106 112
82 95 89 -35 -120 82 63 75
-20 72 68 72 61 75 12 58
-65 44 120 116 31 64 120 109
51 38 53 45 -85 86 82 107
-39 71 77 -127 -68 109 31 68
-127 20 62 94 67 77 112 -59
-47 92 51 104 127 36 88 113
109 116 33 26 -77 51 37 93
-23 14 23 -99 -45 127 10 31
-38 21 45 78 40 47 105 -78
-54 48 25 74 -16 86 58 80
107 121 22 18 -68 69 96 127

sequential/fc1/MatMul i1 [10, 32] scale=0.016137522 zero_point=0
00000000: 1622 fffa cf22 0820 e3ee f7e6 02f3 3301
00000010: cf06 28e0 99bf 2a37 9e9c f70f b242 2c40
00000020: 1727 f321 f851 adcf 0bf9 f1ff bab3 b929
00000030: 23da f51e 213c f2e6 f9f4 a6a6 122c f6eb
00000040: 2816 f8ff f815 0efd 13e2 4a3a e5fb 0ddc
00000050: b24a a394 1512 eae3 1d0f 0007 14b8 f721
00000060: 1925 f0de f2ca f92c 23be d2fc 0d1d 390a
00000070: cfed e1f1 110d 120d 3e4d cfb2 2281 c4de
00000080: 17de cb25 e405 c2aa c166 270d 1d1c feee
00000090: 391d f9eb d8d2 a39b f722 efe6 ee15 1944
000000a0: ee1d 5bfb cc00 1e09 10ff dfd6 ecea 9a33
000000b0: 1def 3319 0013 3b1d fd0a 121f fedd acad
000000c0: efd9 41d0 2ff1 9192 cc28 2813 0826 d02b
000000d0: d200 fad3 0ce4 3023 a184 2d37 2329 e6f4
000000e0: d3be d414 1a03 493f 16e0 1c1f d0cd e5f4
000000f0: f3fd 3138 fee2 bcb2 1b1f c495 d02c f301
0.35502547 0.5486757 -0.016137522 -0.09682513 -0.7907386 0.5486757 0.12910017 0.5164007
-0.46798813 -0.2904754 -0.1452377 -0.41957557 0.032275043 -0.20978779 0.8230136 0.016137522
-0.7907386 0.09682513 0.6455009 -0.5164007 -1.6621647 -1.0489389 0.6777759 0.8875637
-1.5814772 -1.6137521 -0.1452377 0.24206282 -1.2587267 1.0650765 0.71005094 1.0328014
0.371163 0.62936336 -0.20978779 0.53253824 -0.12910017 1.3071393 -1.3394144 -0.7907386
0.17751274 -0.11296265 -0.24206282 -0.016137522 -1.1296265 -1.2425891 -1.145764 0.6616384
0.56481326 -0.6132258 -0.17751274 0.48412564 0.53253824 0.9682513 -0.2259253 -0.41957557
-0.11296265 -0.19365026 -1.452377 -1.452377 0.2904754 0.71005094 -0.16137522 -0.33888796
0.6455009 0.35502547 -0.12910017 -0.016137522 -0.12910017 0.33888796 0.2259253 -0.048412565
0.3066129 -0.48412564 1.1941766 0.93597627 -0.43571308 -0.08068761 0.20978779 -0.5809508
-1.2587267 1.1941766 -1.5007895 -1.7428523 0.33888796 0.2904754 -0.35502547 -0.46798813
0.46798813 0.24206282 0.0 0.11296265 0.32275045 -1.1619016 -0.1452377 0.53253824
0.40343803 0.5970883 -0.25820035 -0.5486757 -0.2259253 -0.87142617 -0.11296265 0.71005094
0.56481326 -1.0650765 -0.742326 -0.06455009 0.20978779 0.46798813 0.9198387 0.16137522
-0.7907386 -0.3066129 -0.50026315 -0.24206282 0.27433786 0.20978779 0.2904754 0.20978779
1.0005263 1.2425891 -0.7907386 -1.2587267 0.5486757 -2.0494652 -0.9682513 -0.5486757
0.371163 -0.5486757 -0.8552886 0.5970883 -0.4518506 0.08068761 -1.0005263 -1.3878269
-1.0166639 1.6460272 0.62936336 0.20978779 0.46798813 0.4518506 -0.032275043 -0.2904754
0.9198387 0.46798813 -0.11296265 -0.33888796 -0.6455009 -0.742326 -1.5007895 -1.6298897
-0.1452377 0.5486757 -0.27433786 -0.41957557 -0.2904754 0.33888796 0.40343803 1.0973514
-0.2904754 0.46798813 1.4685144 -0.08068761 -0.83915114 0.0 0.48412564 0.1452377
0.25820035 -0.016137522 -0.53253824 -0.6777759 -0.32275045 -0.35502547 -1.6460272 0.8230136
0.46798813 -0.27433786 0.8230136 0.40343803 0.0 0.3066129 0.9521138 0.46798813
-0.048412565 0.16137522 0.2904754 0.50026315 -0.032275043 -0.56481326 -1.3555518 -1.3394144
-0.27433786 -0.62936336 1.0489389 -0.77460104 0.7584635 -0.24206282 -1.7912649 -1.7751274
-0.83915114 0.6455009 0.6455009 0.3066129 0.12910017 0.6132258 -0.77460104 0.69391346
-0.742326 0.0 -0.09682513 -0.7261885 0.19365026 -0.4518506 0.77460104 0.56481326
-1.5330646 -2.0010526 0.7261885 0.8875637 0.56481326 0.6616384 -0.41957557 -0.19365026
-0.7261885 -1.0650765 -0.71005094 0.32275045 0.41957557 0.048412565 1.1780391 1.0166639
0.35502547 -0.5164007 0.4518506 0.50026315 -0.77460104 -0.8230136 -0.43571308 -0.19365026
-0.20978779 -0.048412565 0.7907386 0.9037012 -0.032275043 -0.48412564 -1.0973514 -1.2587267
0.43571308 0.50026315 -0.9682513 -1.7267148 -0.77460104 0.71005094 -0.20978779 0.016137522
