port/linux/package/pikascript/pikascript-lib/PikaNN/TinyMaix/tools/tflite/mnist_rect_q.tflite (tflite, 6568 bytes, 4 tensors)

sequential/ftr0/Conv2D i1 [4, 15, 3, 1]
00000000: 01f7 f711 02ff f303 00ef f3f6 f4f6 fc06
00000010: 0306 20f9 0d1a 1921 0008 1bf0 ead9 e9e4
00000020: aed4 9be1 8111 12a4 0803 a1f2 0604 ff04
00000030: f604 120b f613 1a20 4a18 3b34 201c fcda
00000040: e3f6 81bf e0d8 f801 0d0d 0514 f201 1604
00000050: effa 01fa 0504 01ff 02e4 c739 23aa 1815
00000060: 8187 96e6 c485 1710 ea1e 422b 1907 1910
00000070: fd04 0d00 07f6 130e f6f4 0ff6 ecff faf6
00000080: fdf7 f4f8 05f1 ec81 efce cdf6 c4f6 00fc
00000090: d510 13de ff1b ee13 250c 111e 0c10 0300
000000a0: 07fb 0803 fa10 010d 2d09 2648 1d24 401c
000000b0: 2831 2a18
1 -9 -9 17 2 -1 -13 3
0 -17 -13 -10 -12 -10 -4 6
3 6 32 -7 13 26 25 33
0 8 27 -16 -22 -39 -23 -28
-82 -44 -101 -31 -127 17 18 -92
8 3 -95 -14 6 4 -1 4
-10 4 18 11 -10 19 26 32
74 24 59 52 32 28 -4 -38
-29 -10 -127 -65 -32 -40 -8 1
13 13 5 20 -14 1 22 4
-17 -6 1 -6 5 4 1 -1
2 -28 -57 57 35 -86 24 21
-127 -121 -106 -26 -60 -123 23 16
-22 30 66 43 25 7 25 16
-3 4 13 0 7 -10 19 14
-10 -12 15 -10 -20 -1 -6 -10
-3 -9 -12 -8 5 -15 -20 -127
-17 -50 -51 -10 -60 -10 0 -4
-43 16 19 -34 -1 27 -18 19
37 12 17 30 12 16 3 0
7 -5 8 3 -6 16 1 13
45 9 38 72 29 36 64 28
40 49 42 24

sequential/ftr1/Conv2D i1 [8, 7, 3, 4]
00000000: 0604 fbfa 13f5 f005 1202 ebed eaec ef2d
00000010: 1cf6 f4ff 021a d3f1 d8f2 090e 2e00 ee2b
00000020: 1601 c3cf e20c e50b d0fb 9d11 d3fb daf7
00000030: 0402 a4d9 fff2 b40a 1bdd 1b1b 0d0b 87f5
00000040: 1ef1 e224 30bc 24fa ca00 81ca 0cf1 fd16
00000050: 0ae4 03fb de42 5438 0545 5b0c bf41 5208
00000060: d81c 37f1 0516 5ef1 0100 6110 bdda f2d8
00000070: dfbc 1fa7 f9dc 2511 c1ca d342 fbd6 e95b
00000080: 0ce7 f913 18e3 b0e5 4fdf d528 67f5 a1e7
00000090: 3d0f a7de 4ee8 c5ea 1cfd c031 bc10 fb04
000000a0: c4f8 f311 ede7 8281 1303 0aa1 1701 02f0
000000b0: 0827 e9e5 f8e7 08ff cb1b 1602 d040 f0f6
000000c0: cbc7 2508 ce1f 0d05 be1a fa19 0fdb f7fa
000000d0: 3215 cde5 f011 fa28 f5df da25 10f6 9bde
000000e0: 14dd f9fa a906 b9fb 1e10 b50f 4802 f517
000000f0: a4e8 ddd8 8105 def3 c20d 0524 8ceb b61e
6 4 -5 -6 19 -11 -16 5
18 2 -21 -19 -22 -20 -17 45
28 -10 -12 -1 2 26 -45 -15
-40 -14 9 14 46 0 -18 43
22 1 -61 -49 -30 12 -27 11
-48 -5 -99 17 -45 -5 -38 -9
4 2 -92 -39 -1 -14 -76 10
27 -35 27 27 13 11 -121 -11
30 -15 -30 36 48 -68 36 -6
-54 0 -127 -54 12 -15 -3 22
10 -28 3 -5 -34 66 84 56
5 69 91 12 -65 65 82 8
-40 28 55 -15 5 22 94 -15
1 0 97 16 -67 -38 -14 -40
-33 -68 31 -89 -7 -36 37 17
-63 -54 -45 66 -5 -42 -23 91
12 -25 -7 19 24 -29 -80 -27
79 -33 -43 40 103 -11 -95 -25
61 15 -89 -34 78 -24 -59 -22
28 -3 -64 49 -68 16 -5 4
-60 -8 -13 17 -19 -25 -126 -127
19 3 10 -95 23 1 2 -16
8 39 -23 -27 -8 -25 8 -1
-53 27 22 2 -48 64 -16 -10
-53 -57 37 8 -50 31 13 5
-66 26 -6 25 15 -37 -9 -6
50 21 -51 -27 -16 17 -6 40
-11 -33 -38 37 16 -10 -101 -34
20 -35 -7 -6 -87 6 -71 -5
30 16 -75 15 72 2 -11 23
-92 -24 -35 -40 -127 5 -34 -13
-62 13 5 36 -116 -21 -74 30

sequential/ftr2/Conv2D i1 [16, 3, 3, 8]
00000000: de1e 05d2 f03b 45c7 abd7 38c6 81fe 3643
00000010: e425 22e6 c7fa 2b46 dee9 04db 051d 1420
00000020: 3400 f1f8 ce05 bf2d 690a 0a5a a015 3dee
00000030: 3def e30d e705 09fa cb0c 25bb af79 02d9
00000040: dce4 a8e5 ec1d 3225 040e 4101 fe5a 3af4
00000050: 05be 0788 fd2c ebcc 07e7 2010 1b10 81f7
00000060: f41d da00 1b41 2818 1be6 a7ed 58dd 0cf8
00000070: ee46 de04 3c17 5018 fdd3 9dd6 2001 329e
00000080: 010d ace2 2216 0cd8 f950 d40d 33e3 1f1a
00000090: ff3b 3543 fec2 effd 0bda 4def b2b5 eff2
000000a0: f1ff 5819 e7ff a320 f11f 171f d40c 65cd
000000b0: 5bb1 38f6 f598 f5e4 53f0 0ac9 c4ea f606
000000c0: f33a 2216 fc11 ccda 3bfa 5305 b081 c9e3
000000d0: 1ef7 35d9 a433 ee0d 1904 dbc7 e3fa dd4c
000000e0: f911 fedc d400 0068 3931 bbff 3052 fe05
000000f0: 3edf a8f9 fb40 2bf2 1900 e744 9e46 0ce6
-34 30 5 -46 -16 59 69 -57
-85 -41 56 -58 -127 -2 54 67
-28 37 34 -26 -57 -6 43 70
-34 -23 4 -37 5 29 20 32
52 0 -15 -8 -50 5 -65 45
105 10 10 90 -96 21 61 -18
61 -17 -29 13 -25 5 9 -6
-53 12 37 -69 -81 121 2 -39
-36 -28 -88 -27 -20 29 50 37
4 14 65 1 -2 90 58 -12
5 -66 7 -120 -3 44 -21 -52
7 -25 32 16 27 16 -127 -9
-12 29 -38 0 27 65 40 24
27 -26 -89 -19 88 -35 12 -8
-18 70 -34 4 60 23 80 24
-3 -45 -99 -42 32 1 50 -98
1 13 -84 -30 34 22 12 -40
-7 80 -44 13 51 -29 31 26
-1 59 53 67 -2 -62 -17 -3
11 -38 77 -17 -78 -75 -17 -14
-15 -1 88 25 -25 -1 -93 32
-15 31 23 31 -44 12 101 -51
91 -79 56 -10 -11 -104 -11 -28
83 -16 10 -55 -60 -22 -10 6
-13 58 34 22 -4 17 -52 -38
59 -6 83 5 -80 -127 -55 -29
30 -9 53 -39 -92 51 -18 13
25 4 -37 -57 -29 -6 -35 76
-7 17 -2 -36 -44 0 0 104
57 49 -69 -1 48 82 -2 5
62 -33 -88 -7 -5 64 43 -14
25 0 -25 68 -98 70 12 -26

sequential/fc1/MatMul i1 [10, 16] scale=0.019605791 zero_point=0
00000000: fc41 d9cb a12b 1329 d5c5 c640 2ee3 27e8
00000010: 2fe7 b43b bde6 164c 4129 a3dd ded3 eeab
00000020: 3a3f de15 d3bb a8c6 eb1e 2a15 f142 cdf8
00000030: ac0b 26f8 eec8 812e 2243 e802 9bfc 3346
00000040: 3ffe 40ba 1bcf 37e7 2498 cd0a 26d8 d4bf
00000050: f8dc ac02 1d3f 0704 8f15 ffd9 cb22 50f8
00000060: dab5 c0eb cbc9 4930 17b0 46f3 0e42 e7de
00000070: ee3f f91b 33d1 c4d2 2032 a5c6 3cb4 02dc
00000080: 3bde 2849 c745 0df6 cadb 09fe bcf0 ac2f
00000090: cdd2 37ee 201b 18cf 2824 34c1 f6a5 f8eb
-0.078423165 1.2743764 -0.76462585 -1.039107 -1.8625501 0.84304905 0.37251005 0.8038374
-0.84304905 -1.1567417 -1.1371359 1.2547706 0.9018664 -0.56856793 0.76462585 -0.47053897
0.9214722 -0.4901448 -1.4900402 1.1567417 -1.313588 -0.50975055 0.4313274 1.4900402
1.2743764 0.8038374 -1.8233386 -0.6862027 -0.6665969 -0.8822606 -0.35290423 -1.6664922
1.1371359 1.2351649 -0.6665969 0.41172162 -0.8822606 -1.3527995 -1.7253096 -1.1371359
-0.41172162 0.58817375 0.82344323 0.41172162 -0.29408687 1.2939823 -0.99989533 -0.15684633
-1.6468865 0.2156637 0.7450201 -0.15684633 -0.35290423 -1.0979244 -2.4899354 0.9018664
0.6665969 1.313588 -0.47053897 0.039211582 -1.9801849 -0.078423165 0.99989533 1.3724054
1.2351649 -0.039211582 1.2547706 -1.3724054 0.52935636 -0.96068376 1.0783185 -0.4901448
0.70580846 -2.0390022 -0.99989533 0.19605792 0.7450201 -0.78423166 -0.8626548 -1.2743764
-0.15684633 -0.70580846 -1.6468865 0.039211582 0.56856793 1.2351649 0.13724054 0.078423165
-2.2154543 0.41172162 -0.019605791 -0.76462585 -1.039107 0.6665969 1.5684633 -0.15684633
-0.7450201 -1.4704343 -1.2547706 -0.41172162 -1.039107 -1.0783185 1.4312228 0.94107795
0.4509332 -1.5684633 1.3724054 -0.25487527 0.2744811 1.2939823 -0.4901448 -0.6665969
-0.35290423 1.2351649 -0.13724054 0.52935636 0.99989533 -0.9214722 -1.1763475 -0.9018664
0.6273853 0.9802896 -1.784127 -1.1371359 1.1763475 -1.4900402 0.039211582 -0.70580846
1.1567417 -0.6665969 0.78423166 1.4312228 -1.1175301 1.3527995 0.25487527 -0.19605792
-1.0587127 -0.7254143 0.17645212 -0.039211582 -1.3331938 -0.31369266 -1.6468865 0.9214722
-0.99989533 -0.9018664 1.0783185 -0.35290423 0.6273853 0.52935636 0.47053897 -0.96068376
0.78423166 0.70580846 1.0195011 -1.2351649 -0.19605792 -1.784127 -0.15684633 -0.41172162
