port/linux/package/pikascript/pikascript-lib/PikaNN/TinyMaix/tools/tflite/mnist_arduino_q.tflite (tflite, 4184 bytes, 4 tensors)

sequential/ftr0/Conv2D i1 [1, 3, 3, 1] scale=0.0128166005 zero_point=0
0	0x50	1.025328
1	0x7f	1.6277083
2	0x30	0.6151968
3	0xed	-0.2435154
4	0x10	0.20506561
5	0x17	0.2947818
6	0x9b	-1.2944766
7	0xc8	-0.7177296
8	0x06	0.0768996

sequential/ftr1/Conv2D i1 [3, 3, 3, 1]
0	0xea	-22
1	0x00	0
2	0x03	3
3	0x9a	-102
4	0x81	-127
5	0xd0	-48
6	0xfb	-5
7	0x09	9
8	0x09	9
9	0x13	19
10	0x47	71
11	0x5a	90
12	0xda	-38
13	0x4c	76
14	0x7f	127
15	0xf9	-7
16	0x44	68
17	0x56	86
18	0x23	35
19	0x16	22
20	0x11	17
21	0x24	36
22	0x10	16
23	0x09	9
24	0x81	-127
25	0xc5	-59
26	0xd7	-41

sequential/ftr2/Conv2D i1 [6, 3, 3, 3]
0	0xb0	-80
1	0xfc	-4
2	0x0d	13
3	0x2a	42
4	0x0d	13
5	0x2f	47
6	0xc4	-60
7	0xf3	-13
8	0xde	-34
9	0x26	38
10	0x10	16
11	0x21	33
12	0x2d	45
13	0x08	8
14	0x0c	12
15	0x00	0
16	0xec	-20
17	0xef	-17
18	0xad	-83
19	0xfa	-6
20	0x1e	30
21	0x81	-127
22	0x04	4
23	0xe7	-25
24	0xe9	-23
25	0x06	6
26	0x06	6
27	0x81	-127
28	0x0f	15
29	0xad	-83
30	0xcd	-51
31	0x39	57
32	0xdb	-37
33	0xc2	-62
34	0x40	64
35	0x15	21
36	0xef	-17
37	0xed	-19
38	0x11	17
39	0xf8	-8
40	0x05	5
41	0xdf	-33
42	0x07	7
43	0x04	4
44	0xf0	-16
45	0x04	4
46	0xfa	-6
47	0x0f	15
48	0xd2	-46
49	0xd2	-46
50	0xf4	-12
51	0xe2	-30
52	0xd1	-47
53	0x0f	15
54	0xf8	-8
55	0x13	19
56	0xd3	-45
57	0x14	20
58	0x0c	12
59	0x0a	10
60	0xde	-34
61	0x02	2
62	0x25	37
63	0x0e	14
64	0xfd	-3
65	0x33	51
66	0x08	8
67	0x28	40
68	0x12	18
69	0x17	23
70	0x0f	15
71	0xf1	-15
72	0x7f	127
73	0x21	33
74	0x45	69
75	0x3a	58
76	0xec	-20
77	0x18	24
78	0x2a	42
79	0xcd	-51
80	0x1a	26
81	0xc4	-60
82	0xde	-34
83	0xd4	-44
84	0xc1	-63
85	0xb6	-74
86	0xd4	-44
87	0xd9	-39
88	0x04	4
89	0x09	9
90	0xe8	-24
91	0xd4	-44
92	0xa7	-89
93	0x07	7
94	0x12	18
95	0x30	48
96	0x01	1
97	0x25	37
98	0x36	54
99	0x81	-127
100	0xf0	-16
101	0xb1	-79
102	0x00	0
103	0x43	67
104	0xef	-17
105	0x0c	12
106	0x05	5
107	0x3b	59
108	0x2b	43
109	0x29	41
110	0xd8	-40
111	0xcf	-49
112	0x5c	92
113	0x04	4
114	0x81	-127
115	0x57	87
116	0x16	22
117	0x14	20
118	0xb6	-74
119	0xff	-1
120	0x0d	13
121	0xa6	-90
122	0x08	8
123	0xe9	-23
124	0xd0	-48
125	0xf1	-15
126	0xbc	-68
127	0xff	-1
128	0xb4	-76
129	0xf9	-7
130	0x22	34
131	0xb9	-71
132	0x03	3
133	0x02	2
134	0x0a	10
135	0x00	0
136	0x41	65
137	0xd1	-47
138	0x14	20
139	0x35	53
140	0xdd	-35
141	0x3d	61
142	0xf1	-15
143	0x11	17
144	0xcc	-52
145	0x9a	-102
146	0xe4	-28
147	0xcc	-52
148	0xa3	-93
149	0x81	-127
150	0xde	-34
151	0xc3	-61
152	0xd5	-43
153	0xd3	-45
154	0xe2	-30
155	0xd6	-42
156	0xca	-54
157	0x09	9
158	0xb5	-75
159	0xdd	-35
160	0x27	39
161	0xf0	-16

sequential/fc1/MatMul i1 [10, 6] scale=0.032648582 zero_point=0
0	0xb9	-2.3180494
1	0x0f	0.48972872
2	0xcc	-1.6977262
3	0x08	0.26118866
4	0x38	1.8283206
5	0xf3	-0.42443156
6	0xc8	-1.8283206
7	0x1d	0.9468089
8	0xd8	-1.3059433
9	0xa0	-3.134264
10	0xd9	-1.2732947
11	0x44	2.2201035
12	0x13	0.62032306
13	0x9b	-3.2975068
14	0x17	0.7509174
15	0x04	0.13059433
16	0x2f	1.5344833
17	0xe9	-0.7509174
18	0xfa	-0.1958915
19	0xea	-0.7182688
20	0x27	1.2732947
21	0xf6	-0.3264858
22	0x28	1.3059433
23	0x90	-3.6566412
24	0x28	1.3059433
25	0xe6	-0.8488631
26	0x09	0.29383725
27	0xee	-0.5876745
28	0x81	-4.14637
29	0x31	1.5997806
30	0xe6	-0.8488631
31	0xf8	-0.26118866
32	0x1b	0.8815117
33	0x19	0.81621456
34	0x0c	0.391783
35	0xda	-1.2406461
36	0xd2	-1.5018348
37	0xc7	-1.8609692
38	0xb3	-2.5139408
39	0x2f	1.5344833
40	0xc9	-1.795672
41	0x23	1.1427003
42	0x21	1.0774032
43	0xfd	-0.09794575
44	0x25	1.2079976
45	0xae	-2.6771836
46	0x19	0.81621456
47	0xef	-0.5550259
48	0xf3	-0.42443156
49	0x3a	1.8936177
50	0xcf	-1.5997806
51	0x08	0.26118866
52	0xe0	-1.0447546
53	0xc5	-1.9262663
54	0x29	1.3385918
55	0x26	1.2406461
56	0x0c	0.391783
57	0xd9	-1.2732947
58	0xb8	-2.350698
59	0xdb	-1.2079976
