port/linux/package/pikascript/pikascript-lib/PikaNN/TinyMaix/tools/tflite/mnist_dw_f.tflite (tflite, 8504 bytes, 10 tensors)

relu00/Relu;FusedBatchNormV3;ftr0b/depthwise;ftr0b/BiasAdd;ftr0b/bias f4 [4]
0	0xbc945c84	-0.018110521
1	0xbf3bef68	-0.7341218
2	0xbf45e7ad	-0.77306634
3	0xbe87239c	-0.26394355

relu11/Relu;FusedBatchNormV3;ftr1b/depthwise;ftr1b/BiasAdd;ftr1b/bias f4 [32]
0	0xbe0891b9	-0.13336839
1	0xbf2a47e0	-0.6651592
2	0xbf68815f	-0.90822405
3	0x3fb151b7	1.3853062
4	0x403038c1	2.753464
5	0xc024e87d	-2.57669
6	0xbfc18929	-1.5119983
7	0xbfe20e23	-1.7660564
8	0x3fb66925	1.4250838
9	0xbeb5f370	-0.3553729
10	0xbf528927	-0.8224053
11	0xbfb37136	-1.4018924
12	0xbfa3ca32	-1.279608
13	0xbfc7d488	-1.5611734
14	0xbfb378ee	-1.402128
15	0x3f82d415	1.0220972
16	0x4090d721	4.526261
17	0xbe98c0fa	-0.2983473
18	0xbfac897e	-1.3479459
19	0xbfbc96dd	-1.473354
20	0xc006cd64	-2.106286
21	0xc004ca11	-2.0748332
22	0xbec083f1	-0.37600663
23	0xbf4401ae	-0.76565063
24	0xbf44a68c	-0.7681663
25	0xbf30df00	-0.6909027
26	0xbe78293e	-0.24234483
27	0xbe54c36d	-0.20777674
28	0x3ffa54f0	1.9557171
29	0xbf9eacb5	-1.2396456
30	0xc02c7054	-2.694356
31	0xc0434fd2	-3.0517468

fc1/bias f4 [10]
0	0xbdb47249	-0.08810861
1	0x3dcecad7	0.100972824
2	0xbd520332	-0.05127258
3	0xbe3bf79d	-0.18356176
4	0x3d9769dc	0.07393238
5	0xbddaac52	-0.10677399
6	0x3bca5423	0.0061745807
7	0xbc0bf531	-0.008542345
8	0x3e4cc7d5	0.19998105
9	0xbbff8423	-0.0077977343

fc1/MatMul f4 [10, 32]
0	0x3eb3224b	0.349871
1	0x3f0be932	0.546527
2	0xbc15d7d5	-0.009145697
3	0xbdc749f3	-0.097309016
4	0xbf4a54a1	-0.79035383
5	0x3f0d1848	0.55115175
6	0x3dfe9ae8	0.1243189
7	0x3f03aec4	0.51438546
8	0xbeed1806	-0.4630739
9	0xbe94262a	-0.28935367
10	0xbe1510ce	-0.14557192
11	0xbeda9c4e	-0.42697376
12	0x3d12d24d	0.03584509
13	0xbe5be209	-0.21472944
14	0x3f5286cc	0.82236934
15	0x3c3362d3	0.0109488545
16	0xbf49db54	-0.78850293
17	0x3dd18f99	0.10232467
18	0x3f272a16	0.65298593
19	0xbf02db1d	-0.5111559
20	0xbfd5c8cd	-1.6701905
21	0xbf8701a5	-1.0547377
22	0x3f2babae	0.6705884
23	0x3f61a319	0.8813949
24	0xbfca35a0	-1.5797615
25	0xbfce3ccb	-1.6112303
26	0xbe0fb4bf	-0.14033793
27	0x3e7badb5	0.24577983
28	0xbfa09367	-1.2544984
29	0x3f8882e3	1.0664943
30	0x3f34562d	0.70443994
31	0x3f84fc47	1.0389489
32	0x3ebc269e	0.36748213
33	0x3f226fac	0.6345165
34	0xbe5c239d	-0.2149796
35	0x3f08da1f	0.53457826
36	0xbe040ff3	-0.12896709
37	0x3fa6ff22	1.304661
38	0xbfab50f9	-1.3384086
39	0xbf4abd6b	-0.7919528
40	0x3e314008	0.17309582
41	0xbddcf360	-0.107886076
42	0xbe7e54e5	-0.24837072
43	0xbcc5a19b	-0.024124911
44	0xbf906f00	-1.1283875
45	0xbf9e67cf	-1.237543
46	0xbf91f9d0	-1.1404362
47	0x3f29f47c	0.6638868
48	0x3f10134b	0.5627944
49	0xbf1bd935	-0.60878307
50	0xbe3cd2f1	-0.18439843
51	0x3efbdb62	0.49190813
52	0x3f08d19e	0.5344485
53	0x3f79a566	0.97518003
54	0xbe6f86bf	-0.23391245
55	0xbed413f9	-0.41421488
56	0xbddd9dcb	-0.10821112
57	0xbe3efb04	-0.18650442
58	0xbfba4410	-1.4552021
59	0xbfb9c645	-1.4513632
60	0x3e96a977	0.29426166
61	0x3f35ead9	0.71061474
62	0xbe26c17c	-0.16284746
63	0xbeaf0e91	-0.341908
64	0x3f258f65	0.6467193
65	0x3eb700f7	0.35742924
66	0xbe01e2c9	-0.12684168
67	0xbc8fd57c	-0.017557852
68	0xbe048866	-0.12942657
69	0x3eb045db	0.34428295
70	0x3e66907f	0.22516058
71	0xbd3cc334	-0.046084598
72	0x3e9d05c2	0.30668455
73	0xbef6fbbd	-0.48238936
74	0x3f987478	1.1910543
75	0x3f6ecc63	0.9328062
76	0xbedda766	-0.43291777
77	0xbdb3ab46	-0.08772902
78	0x3e51ea0e	0.20499441
79	0xbf13b636	-0.57699907
80	0xbfa038e4	-1.2517362
81	0x3f99a3a6	1.2003067
82	0xbfc0935b	-1.5044969
83	0xbfde8312	-1.738375
84	0x3eab6884	0.33478177
85	0x3e98525d	0.29750338
86	0xbeb3fef9	-0.35155466
87	0xbeecddcc	-0.46262968
88	0x3eedd197	0.46448967
89	0x3e7d10af	0.24713396
90	0x3b8c2860	0.004277274
91	0x3df49494	0.119424015
92	0x3ea87a36	0.3290574
93	0xbf9400b9	-1.156272
94	0xbe0d1985	-0.13779266
95	0x3f066094	0.52491117
96	0x3ed1476c	0.40874803
97	0x3f16d063	0.5891172
98	0xbe80aed1	-0.25133374
99	0xbf0e22a3	-0.555216
100	0xbe6ef482	-0.2333546
101	0xbf5ec9c3	-0.87026614
102	0xbde6a7ca	-0.11262472
103	0x3f360ea7	0.7111611
104	0x3f0fc9d8	0.56167364
105	0xbf88d15c	-1.0688891
106	0xbf3de136	-0.7417177
107	0xbd7124de	-0.05887305
108	0x3e57cf37	0.2107514
109	0x3eee0f72	0.4649616
110	0x3f6cd80a	0.9251715
111	0x3e219088	0.1577779
112	0xbf48bcd1	-0.7841311
113	0xbe9a923e	-0.301897
114	0xbeffc1bb	-0.49952492
115	0xbe77b2b5	-0.24189265
116	0x3e895da4	0.26829255
117	0x3e579dbf	0.21056269
118	0x3e97c500	0.29642487
119	0x3e4f0ff2	0.20220926
120	0x3f7f7e20	0.99801826
121	0x3f9f5ea4	1.2450757
122	0xbf499366	-0.7874054
123	0xbfa19dab	-1.2626241
124	0x3f0d192e	0.55116546
125	0xc0032a70	-2.0494652
126	0xbf7793f7	-0.9671015
127	0xbf0cef1e	-0.55052364
128	0x3ebdc20a	0.37062103
129	0xbf0cec8c	-0.5504844
130	0xbf5a7695	-0.8533719
131	0x3f1ac4e0	0.6045666
132	0xbee6cf8c	-0.4508022
133	0x3db0587b	0.08610626
134	0xbf7eedfb	-0.9958188
135	0xbfb2635b	-1.3936571
136	0xbf82cbe1	-1.0218469
137	0x3fd1f732	1.6403563
138	0x3f232089	0.6372152
139	0x3e5b0a37	0.21390615
140	0x3eeda1d1	0.4641252
141	0x3ee8a3dd	0.45437518
142	0xbd24ff38	-0.040282458
143	0xbe9755e3	-0.29557714
144	0x3f69abeb	0.9127795
145	0x3eee5938	0.46552444
146	0xbdf43a0e	-0.119251356
147	0xbeab902d	-0.33508435
148	0xbf2574a8	-0.6463113
149	0xbf3bfd6b	-0.7343356
150	0xbfbf5b43	-1.4949726
151	0xbfd04ef5	-1.6274096
152	0xbe13b704	-0.14425284
153	0x3f0bb226	0.5456871
154	0xbe8eff9c	-0.2792939
155	0xbed9642a	-0.42459232
156	0xbe95f7ed	-0.29290715
157	0x3eabbc73	0.33542213
158	0x3ece9121	0.403451
159	0x3f8c2183	1.0947727
160	0xbe98586d	-0.29754964
161	0x3ef3b5c7	0.47599623
162	0x3fbbc15a	1.4668381
163	0xbd967dd9	-0.07348222
164	0xbf5760c2	-0.84132016
165	0x3a8eaaaa	0.0010884602
166	0x3ef5d222	0.4801188
167	0x3e1a7a53	0.15085725
168	0x3e8285a6	0.2549259
169	0xbc86ab93	-0.016439235
170	0xbf07dc1e	-0.5307025
171	0xbf2f8952	-0.6856891
172	0xbea4e835	-0.3220841
173	0xbeb305fe	-0.3496551
174	0xbfd24732	-1.6427977
175	0x3f53af43	0.82689303
176	0x3eedca93	0.46443614
177	0xbe8cc2ce	-0.27492374
178	0x3f538c0f	0.8263559
179	0x3ed19c36	0.40939492
180	0xbb8f6ca8	-0.0043769665
181	0x3e9f873f	0.31157872
182	0x3f7220df	0.9458141
183	0x3ef0d423	0.47036847
184	0xbd44c814	-0.048042372
185	0x3e2d462e	0.16921303
186	0x3e9657c7	0.29363844
187	0x3efe859e	0.49711317
188	0xbd07b36e	-0.0331301
189	0xbf11ac1c	-0.56903243
190	0xbfaddab0	-1.3582363
191	0xbfab33dc	-1.3375201
192	0xbe9035c2	-0.28166014
193	0xbf20b071	-0.6276923
194	0x3f8711bf	1.0552291
195	0xbf44b4b4	-0.7683823
196	0x3f42dfa2	0.76122487
197	0xbe718015	-0.23584016
198	0xbfe60836	-1.7971256
199	0xbfe3c23f	-1.7793654
200	0xbf55ff53	-0.8359272
201	0x3f246e26	0.64230573
202	0x3f257484	0.64630914
203	0x3e9e8b77	0.30965778
204	0x3e02c4f3	0.12770443
205	0x3f1b10b1	0.60572344
206	0xbf485737	-0.7825808
207	0x3f3006a3	0.68760127
208	0xbf3cda01	-0.7377015
209	0xbb6d9948	-0.0036254693
210	0xbdb840d8	-0.08996743
211	0xbf3bec20	-0.73407173
212	0x3e4db532	0.20088652
213	0xbee77361	-0.45205215
214	0x3f444995	0.7667478
215	0x3f10a24b	0.5649764
216	0xbfc4874a	-1.5353787
217	0xbfff638f	-1.9952258
218	0x3f3a5bcd	0.72796327
219	0x3f63fb44	0.89055276
220	0x3f11b5a0	0.5691776
221	0x3f299269	0.6623903
222	0xbed4d761	-0.4157057
223	0xbe4b3b4d	-0.1984684
224	0xbf3aa1c3	-0.7290308
225	0xbf89046d	-1.0704476
226	0xbf343376	-0.70391023
227	0x3ea7ce4c	0.3277458
228	0x3ed97b96	0.424771
229	0x3d35b885	0.044365425
230	0x3f96648d	1.1749436
231	0x3f820788	1.0158548
232	0x3eb7a721	0.35869697
233	0xbf05f99c	-0.52334
234	0x3ee8fad4	0.45503867
235	0x3efe6fbf	0.4969463
236	0xbf471b3e	-0.77775943
237	0xbf52278d	-0.820916
238	0xbedc3743	-0.4301091
239	0xbe417d96	-0.18895563
240	0xbe552b7d	-0.2081737
241	0xbd514a02	-0.05109597
242	0x3f495290	0.78641605
243	0x3f6842bf	0.90726846
244	0xbd0fb871	-0.035088006
245	0xbef6c000	-0.4819336
246	0xbf8c4563	-1.0958675
247	0xbfa0eb67	-1.2571839
248	0x3ee0c512	0.43900353
249	0x3efe2606	0.49638385
250	0xbf763b50	-0.96184254
251	0xbfddbf20	-1.7323952
252	0xbf46cde2	-0.776579
253	0x3f358548	0.70906496
254	0xbe4ea9aa	-0.20181909
255	0x3cc224a1	0.023699107

relu0/Relu;FusedBatchNormV3;ftr0a/bias;ftr0a/BiasAdd;ftr0b/depthwise;ftr0a/Conv2D f4 [4]
0	0x3c542380	0.012947917
1	0x3f42fe53	0.7616932
2	0x3f33ec1d	0.70282155
3	0x3e8a6386	0.27029055

FusedBatchNormV3;ftr0b/depthwise;ftr0b/BiasAdd;ftr0b/bias f4 [1, 3, 3, 4]
0	0x3e83a5d9	0.2571247
1	0xbf04d0d1	-0.5188113
2	0x3fbd8b2c	1.4808097
3	0x3f66f9c9	0.9022489
4	0x3f19c28c	0.6006248
5	0xbf023b92	-0.5087215
6	0x3efc80c7	0.49317
7	0x3ebc0f55	0.36730447
8	0x3eae0ac9	0.33992603
9	0xbf34b9a2	-0.70595753
10	0xbf437348	-0.7634778
11	0xbe9c9409	-0.30581692
12	0x3ea55639	0.32292345
13	0xbd85e6e1	-0.06538177
14	0x40076262	2.1153798
15	0x3f4cc03a	0.79980814
16	0xbe9c0241	-0.3047047
17	0x3dc4775c	0.095930785
18	0xc00c6a0a	-2.193972
19	0x3f05dbdb	0.522886
20	0x3dfb192f	0.12260663
21	0x3ea7cd40	0.3277378
22	0xbe11722d	-0.14203711
23	0xbd85445b	-0.065071784
24	0x3e463384	0.19355589
25	0x3f9a5db0	1.2059841
26	0xbdcf4f5f	-0.10122561
27	0x3e5ad8a2	0.21371701
28	0x3ed141e1	0.40870574
29	0x3f824411	1.0177022
30	0xbf5e11b3	-0.86745757
31	0xbdf58112	-0.11987509
32	0x3e6b3fbe	0.22973534
33	0x3fd17b89	1.6365825
34	0x3fa44898	1.2834654
35	0xbf550211	-0.8320628

relu1/Relu;FusedBatchNormV3;ftr1a/bias;ftr1a/BiasAdd;ftr1a/Conv2D f4 [16]
0	0xbe344976	-0.17606148
1	0xbe16197e	-0.14658162
2	0xbfdb6382	-1.7139742
3	0x3f042f33	0.5163452
4	0x3d9c1601	0.076213844
5	0xbfe0da03	-1.7566532
6	0x3f69495e	0.91127574
7	0x3da31256	0.07962482
8	0xc04acd0b	-3.1687648
9	0xbf82f16e	-1.0229928
10	0xbf2409ee	-0.6407765
11	0xbfbfd644	-1.4987264
12	0xbdb0e7fb	-0.08637997
13	0xbc8fee58	-0.017569706
14	0xbf6121b2	-0.8794204
15	0x3fbbd6e1	1.4674951

FusedBatchNormV3;ftr1b/depthwise;ftr1b/BiasAdd;ftr1b/bias f4 [1, 3, 3, 32]
0	0xc0ee1d92	-7.4411097
1	0x413dd890	11.865372
2	0x40c071c4	6.0138874
3	0xc078458e	-3.8792453
4	0xbfee69ef	-1.8626078
5	0x40077d72	2.1170316
6	0x40b75947	5.729648
7	0x409d23dd	4.910628
8	0xc0319db8	-2.7752514
9	0x418451c6	16.539928
10	0x3f810ae4	1.0081449
11	0x3f68a613	0.9087841
12	0x40b8ef13	5.779184
13	0x40b8b804	5.772463
14	0x4008be63	2.1366203
15	0xc01ef54d	-2.483722
16	0xbf77724a	-0.96658766
17	0xbf3f971f	-0.7483997
18	0x409e44bd	4.945891
19	0x40758b31	3.8366206
20	0x3e740cda	0.23833027
21	0x3fce23ac	1.6104636
22	0x41684007	14.515632
23	0x415aba5d	13.670499
24	0x40d09601	6.518311
25	0x40bb6ee3	5.857286
26	0x419c0d68	19.506546
27	0x41a5622e	20.67294
28	0xc0049687	-2.0716875
29	0x4063b147	3.5576952
30	0x3e8d72a4	0.27626526
31	0x4037ffe3	2.874993
32	0xbf4a5b5b	-0.7904565
33	0x4109027e	8.563108
34	0x4031db60	2.7790146
35	0xc02db59e	-2.71421
36	0xbfd96690	-1.6984425
37	0x3fd4d946	1.6628807
38	0xbf26ecbe	-0.6520499
39	0x403da713	2.9633224
40	0xc04975c4	-3.1478128
41	0x41c8609d	25.047174
42	0xc02d2cd1	-2.7058604
43	0xbeae219b	-0.34010014
44	0x4068e6ed	3.6390946
45	0x406e4755	3.7231038
46	0x3f422478	0.75836897
47	0xbfb02b2e	-1.3763177
48	0xbf013842	-0.5047647
49	0xbe6b3399	-0.22968902
50	0x4083e775	4.122004
51	0x3f4ef8c8	0.8084836
52	0x4052ceda	3.2938752
53	0x400a20db	2.1582553
54	0x4109b6b2	8.607103
55	0x41120e7f	9.128539
56	0x407e3430	3.9719353
57	0x406402f3	3.56268
58	0x417b452f	15.704391
59	0x4184b13a	16.586536
60	0xbfdbca7c	-1.7171168
61	0x405186f5	3.2738621
62	0x40558090	3.3359718
63	0x3fc133cb	1.5093931
64	0x4109202d	8.570355
65	0x41479c28	12.475624
66	0x410fdb59	8.991052
67	0xc0034a1c	-2.0513983
68	0xc0284b71	-2.6296046
69	0x3ff7e1f9	1.9365836
70	0x41086c94	8.526508
71	0x40d97a40	6.796173
72	0xc10846ae	-8.517256
73	0x41c0d8bb	24.105825
74	0x406b697f	3.678314
75	0x40358c9b	2.8367069
76	0x40874b3d	4.2279344
77	0x409e913c	4.955229
78	0x40102ea9	2.252848
79	0x40019b88	2.0251179
80	0xbf43986d	-0.7640446
81	0xbf12acf6	-0.5729517
82	0x40860c6f	4.189018
83	0x3ff1faf2	1.8904707
84	0x4030cbda	2.762442
85	0x3d4a7907	0.049431827
86	0x415a47a6	13.642492
87	0x413fde41	11.991761
88	0x403f1d1e	2.9861522
89	0x3f8b34b6	1.0875461
90	0x4196797f	18.809324
91	0x419f38b0	19.90268
92	0xbfa7b8a3	-1.3103222
93	0x403c02f3	2.93768
94	0x3fe328ab	1.7746786
95	0x3f5ac1dc	0.85452056
96	0x4140c3d3	12.047809
97	0x41036694	8.2125435
98	0x408bbef6	4.3670607
99	0xc0ad4381	-5.41449
100	0xc00b97ad	-2.1811326
101	0x4035f2a8	2.8429356
102	0x402d2b3c	2.7057638
103	0x40362221	2.845833
104	0xc14e45d0	-12.892044
105	0x407ac268	3.9181156
106	0x3f0a6558	0.5406089
107	0x3fac052f	1.3439082
108	0x4010ff4a	2.2655816
109	0x40543496	3.3157096
110	0x402069c4	2.5064554
111	0xbfbd29ae	-1.4778345
112	0xbf1ed0e0	-0.6203747
113	0x3e4f9b78	0.2027415
114	0x40b24e16	5.572032
115	0x40e6399c	7.1945324
116	0x4038e184	2.8887644
117	0x3fcf6f5c	1.6205859
118	0x4153a015	13.226583
119	0x413928f1	11.572495
120	0x412ee2bd	10.930356
121	0x4132a526	11.165319
122	0x408f1f4e	4.4725714
123	0x404f4a19	3.2388976
124	0xc0132356	-2.2990317
125	0x400807a0	2.1254654
126	0x3ff58ef5	1.9184252
127	0x403ff9e3	2.9996269
128	0x40ca01fa	6.3127413
129	0x408cbbde	4.397933
130	0x4025dbeb	2.5915477
131	0xc0addd49	-5.4332623
132	0xc01b878c	-2.4301481
133	0x40134a56	2.301412
134	0x3fa7089c	1.3049502
135	0x3fecb94b	1.8494047
136	0xc0fbe074	-7.871149
137	0x41644858	14.267662
138	0x3fa6a55e	1.3019216
139	0x3fe5c4fa	1.7950737
140	0x3fd078ca	1.6286862
141	0x3ff85029	1.9399463
142	0x3f3a9265	0.7287963
143	0xbf7fcb2b	-0.99919385
144	0x3e2933a1	0.16523601
145	0xbc1cce3b	-0.009570654
146	0x40891e81	4.2849736
147	0x40a51abe	5.1595144
148	0x3f9ffd6c	1.2499213
149	0x400089c5	2.0084088
150	0x41004c78	8.018669
151	0x410d1978	8.818718
152	0x410c0add	8.752652
153	0x41152953	9.322589
154	0x4029fe4c	2.656146
155	0x3fd5b5e1	1.669613
156	0xbfbb3e36	-1.462836
157	0x3fe2400d	1.7675797
158	0x40323eac	2.7850752
159	0x402a68bd	2.6626427
160	0x40fa2cef	7.817985
161	0x41151340	9.3172
162	0x410e46e1	8.892304
163	0xbfdfb5d4	-1.7477365
164	0xc01f839b	-2.4924076
165	0x3ff3424a	1.9004605
166	0x40866ddd	4.200911
167	0x40806491	4.012276
168	0xc0478ded	-3.1180375
169	0x41628254	14.156818
170	0x3ffcae0a	1.9740613
171	0x3fcd1acd	1.6023804
172	0x4031a0bc	2.7754354
173	0x405a40d9	3.410208
174	0x3edcdc61	0.43136886
175	0x3f9042c4	1.1270375
176	0xbefef731	-0.49797967
177	0x3e85d7d5	0.2614123
178	0x40a86c94	5.263254
179	0x40d1c1e0	6.5549164
180	0x3f693b03	0.9110567
181	0x3f8b8361	1.0899469
182	0x415ac6d9	13.673547
183	0x413c3a6f	11.764266
184	0x408ceb93	4.4037566
185	0x40545485	3.3176587
186	0x41034eed	8.206769
187	0x40ebd737	7.3700213
188	0xbfc5540b	-1.5416273
189	0x401b060b	2.4222438
190	0x40095642	2.1458898
191	0x40223068	2.5342045
192	0xc06f929f	-3.743324
193	0x40e0a11c	7.0196667
194	0x40f71d32	7.722314
195	0xc0cd93f9	-6.424313
196	0xbfb4c1a1	-1.4121591
197	0x4020e5da	2.514029
198	0x4005b788	2.0893269
199	0x406a62b5	3.6622746
200	0xc1a1bb33	-20.216406
201	0x407b31cd	3.9249146
202	0x3fe5b62f	1.7946223
203	0x40060056	2.0937705
204	0x4042ca26	3.0435882
205	0x40604db7	3.5047433
206	0x408201d7	4.0627246
207	0xbf931bb3	-1.1492828
208	0xbeb750d4	-0.35803854
209	0x3f0b3f0c	0.54393077
210	0x401021a9	2.2520545
211	0x40bc3ca1	5.882401
212	0x4071c40b	3.7775905
213	0x3f1c1263	0.60965556
214	0x41201ad8	10.006554
215	0x41437012	12.214861
216	0x41163bfb	9.389644
217	0x4122d9ea	10.178202
218	0x40a3f390	5.1234818
219	0x40898424	4.2973804
220	0xbfb2a671	-1.3957044
221	0x3fb70732	1.4299071
222	0x3f79c103	0.9756014
223	0x400dde8c	2.2167082
224	0xc00d5ff1	-2.2089808
225	0x3fa9d37d	1.3267666
226	0x4011452c	2.269847
227	0xc09fca54	-4.9934483
228	0xbf702825	-0.93811256
229	0x403b817a	2.9297776
230	0x3f2cdab5	0.6752122
231	0x3fd70ddf	1.6801108
232	0xc0c3d367	-6.119556
233	0x4081cc94	4.056223
234	0x3fa57989	1.2927715
235	0x3fe0515f	1.7524832
236	0x3fea289b	1.8293642
237	0x4007adc6	2.1199813
238	0x4074ec4e	3.826923
239	0xbfc2522a	-1.5181324
240	0xbed142a7	-0.40871164
241	0x3e921554	0.28531897
242	0x3f8ba062	1.090832
243	0x4086370c	4.1942196
244	0xbeef8570	-0.46781492
245	0x3fbaa87a	1.4582665
246	0x40d4e75c	6.653242
247	0x41093ab6	8.576834
248	0x4112c855	9.173909
249	0x412a06df	10.6266775
250	0x40585f3d	3.380813
251	0x4037c61e	2.871467
252	0xbf9e0e1a	-1.2348053
253	0x3ff5e982	1.9211886
254	0x4021baac	2.5270185
255	0x4040c0f1	3.0117762

ftr0a/Conv2D f4 [4, 3, 3, 1]
0	0x3f4179c6	0.75576437
1	0x3fa98499	1.324359
2	0x3facc8dc	1.3498797
3	0xbe0af544	-0.13570124
4	0x3dce6522	0.10077883
5	0x3e703efa	0.23461524
6	0xbf97fcf3	-1.1874069
7	0xbfca6676	-1.5812519
8	0xbfb32a1a	-1.3997223
9	0xbda76beb	-0.081748806
10	0xbdc46a3b	-0.09590574
11	0xbeaa380b	-0.33245882
12	0xbeb7105b	-0.35754666
13	0xbed28a79	-0.4112127
14	0xbec8d1e4	-0.39222634
15	0xbe5de403	-0.21669011
16	0xbca7eb32	-0.020497892
17	0xbd41694e	-0.047219567
18	0x3dea8c51	0.114525445
19	0xbde30919	-0.110857196
20	0xbe928212	-0.2861486
21	0xbd9677ba	-0.07347055
22	0xbeaba14d	-0.335215
23	0xbdb0d66f	-0.0863465
24	0xbebec7a8	-0.372617
25	0xbd8937e8	-0.067001164
26	0x3da89a45	0.082325496
27	0x3e951e96	0.29124898
28	0x3e0feab9	0.14054383
29	0x3e38de6b	0.18053596
30	0x3d84b649	0.06480081
31	0x3e122297	0.14271007
32	0x3d5a2d19	0.053265665
33	0x3e825b43	0.25460252
34	0x3e5f69b2	0.21817663
35	0x3e8c1911	0.27362874

ftr1a/Conv2D f4 [16, 3, 3, 4]
0	0x3cc94412	0.024568591
1	0x3da6debc	0.08147952
2	0xbde3e02d	-0.111267425
3	0xbdc94440	-0.09827471
4	0x3c8d4be9	0.01724811
5	0x3dbf9bb2	0.093558684
6	0xbeba9680	-0.36442947
7	0xbe30ebd0	-0.17277455
8	0x3c7f05ba	0.01556533
9	0x3dfeeef9	0.12447924
10	0xbd52f611	-0.0515042
11	0xbc8b8621	-0.017031731
12	0x3c0f40fc	0.008743521
13	0xbe87c61a	-0.26518327
14	0xbe346bad	-0.176192
15	0xbd98c986	-0.074603125
16	0x3d9f151b	0.077676974
17	0xbf107eec	-0.5644367
18	0xbc88521d	-0.016640717
19	0x3cfdb3bb	0.030969491
20	0xbe0ed82c	-0.1394965
21	0x3e0a8e9e	0.13530967
22	0xbd076f34	-0.033065036
23	0x3df17918	0.11790675
24	0xbe268b99	-0.1626419
25	0xbd570400	-0.05249405
26	0xbe2db196	-0.16962275
27	0xbcc27239	-0.023736106
28	0xbebf9698	-0.3741958
29	0x3a0d09d9	0.00053801906
30	0xbdc57b87	-0.096427016
31	0x3d94014a	0.07226808
32	0xbc8dd2dc	-0.01731246
33	0x3e3c4366	0.18385085
34	0x3c5b028e	0.013367308
35	0x3d3026c2	0.043005712
36	0x3df88116	0.12133996
37	0x3b5c5c81	0.0033624473
38	0x3d50d0a5	0.05098023
39	0x3c6619a5	0.0140442
40	0x3d17e873	0.037086915
41	0xbe200b6b	-0.15629356
42	0x3d72ebe6	0.059307
43	0x3e138916	0.14407763
44	0xbc80e1b8	-0.015732631
45	0xbc3d64e0	-0.011559695
46	0x3d8a8ea9	0.067654915
47	0x3e35457e	0.1770229
48	0x3e39ea3d	0.18155761
49	0x3de1bf7d	0.110228516
50	0xbe878de1	-0.26475433
51	0xbeea30d1	-0.4574037
52	0x3d87630b	0.06610688
53	0x3d9def5a	0.07711668
54	0xbed25f13	-0.4108816
55	0xbee6671f	-0.4500055
56	0xbe85e90d	-0.26154366
57	0x3f1dbd54	0.61617017
58	0xbe1936aa	-0.14962259
59	0xbe2a5b08	-0.16636288
60	0x3e8a4cd7	0.2701175
61	0xbf0ad9bf	-0.54238504
62	0xbe83ebab	-0.25765738
63	0x3df201b3	0.1181673
64	0xbddb1126	-0.1069663
65	0xbe5da6cc	-0.21645659
66	0xbe8e1094	-0.27747023
67	0x3e7a949a	0.2447075
68	0xbe426cae	-0.1898677
69	0x3ec6d924	0.3883754
70	0xbe2640f8	-0.16235721
71	0xbd8fbce2	-0.070184484
72	0xbe7ed754	-0.24886829
73	0x3ec22110	0.3791585
74	0xbdd5769b	-0.10423013
75	0xbd9405d1	-0.07227672
76	0xbee48a66	-0.4463684
77	0xbc99e2f0	-0.01878497
78	0x3d64e34c	0.05588083
79	0x3f44e272	0.7690803
80	0xbed1e4df	-0.40994927
81	0x3cfc0d43	0.030768042
82	0x3de640d9	0.112428375
83	0xbead83c9	-0.33889607
84	0xbee3ed84	-0.44517148
85	0x3e3f7b24	0.18699318
86	0x3e678091	0.22607638
87	0xbeeedff3	-0.46655235
88	0xbdd435cb	-0.10361823
89	0xbd4a88bf	-0.049446817
90	0x3ed62245	0.4182302
91	0x3db3713b	0.087618314
92	0x3de9b41b	0.114113055
93	0x3eba645d	0.36404696
94	0x3e8f3b60	0.27974987
95	0xbe62ddff	-0.22154997
96	0xbdd2d585	-0.10294632
97	0x3e821819	0.2540901
98	0x3c82626c	0.015916072
99	0xbb3321e7	-0.002733344
100	0x3e8eb2ec	0.27870882
101	0x3e473fda	0.19457951
102	0x3e71d698	0.23617017
103	0x3d47cf3a	0.04878161
104	0x3e6cf843	0.2314158
105	0x3dfebb64	0.12438086
106	0xbe91d54f	-0.28483054
107	0x3f1ede50	0.6205797
108	0xbe6668ed	-0.22500964
109	0xbd90154e	-0.070353135
110	0x3e7312b8	0.2373761
111	0xbe845039	-0.25842455
112	0x3cf649b0	0.030064434
113	0x3c8b300a	0.01699068
114	0x3e20d485	0.1570607
115	0xbf2ca642	-0.6744119
116	0x3d03fded	0.032224584
117	0x3daaeb41	0.08345652
118	0xbf03f70b	-0.5154883
119	0xbf526a16	-0.82193124
120	0x3d487a8b	0.04894499
121	0xbd1a9977	-0.03774401
122	0xbd1d7cb7	-0.038449015
123	0x3e22dc14	0.15904266
124	0x3e7f7663	0.24947505
125	0x3d79b321	0.060961846
126	0xbeb91068	-0.3614533
127	0xbc45c5d7	-0.0120710945
128	0xbbc3d445	-0.0059762322
129	0x3dea620b	0.114444815
130	0xbe2bcd32	-0.16777495
131	0xbe47661b	-0.19472544
132	0x3e252d4d	0.16130562
133	0xbd9b1cf0	-0.07573879
134	0xbd830323	-0.06397083
135	0xbe52e3e0	-0.2059474
136	0x3d93012c	0.07177958
137	0xbe21d074	-0.15802175
138	0xbea2102d	-0.31652966
139	0x3ccb8f5d	0.024848634
140	0x3d48f09e	0.049057595
141	0xbe2a6a72	-0.16642168
142	0xbe4496f4	-0.19198209
143	0x3e92e772	0.28692204
144	0xbe817919	-0.25287703
145	0x3d4c5a93	0.049891066
146	0x3e11d685	0.14241989
147	0xbe87e513	-0.26541957
148	0xbd9db645	-0.07700781
149	0xbc6ebef1	-0.014571891
150	0x3d53d241	0.051714186
151	0xbdf731e4	-0.12070063
152	0xbe96fe47	-0.29490873
153	0xbdc9cfec	-0.09854111
154	0xbcab2a21	-0.020894112
155	0xbe916ed4	-0.28404868
156	0x3d9c58bb	0.076341115
157	0xbadd2425	-0.0016871734
158	0x3e4cc8af	0.1999843
159	0x3d8b7e5d	0.06811211
160	0xbded8d8a	-0.11599262
161	0xbcc5572b	-0.024089416
162	0x3e278de8	0.16362727
163	0x3e119221	0.142159
164	0xbed5c29e	-0.41750044
165	0xbe417749	-0.1889316
166	0x3d3b318f	0.04570156
167	0x3e1572f5	0.14594634
168	0x3d16a2c3	0.036776315
169	0xbe701eb5	-0.23449214
170	0x3def32e5	0.11679629
171	0x3d9b1ed3	0.07574239
172	0xbcd73c15	-0.026273767
173	0x3d182cdf	0.037152167
174	0x3e2d37ca	0.16915813
175	0xbdc51aa1	-0.0962422
176	0xbe5b1df9	-0.21398152
177	0x3dd60a43	0.10451176
178	0xbd8d674c	-0.06904468
179	0xbe063d00	-0.13109207
180	0x3d354e15	0.044263918
181	0x3de57caa	0.112054184
182	0xbe954a63	-0.29158315
183	0x3e4a9d93	0.19786672
184	0x3d382c19	0.04496393
185	0x3d1117d3	0.03542311
186	0x3d519b4d	0.051173497
187	0x3e30dba7	0.1727129
188	0x3e49aeb4	0.1969555
189	0x3e935f0b	0.2878345
190	0x3e4622fb	0.19349281
191	0x3e693cd1	0.22777106
192	0xbd1f1752	-0.0388406
193	0x3e1081d2	0.14112023
194	0x3e03b60a	0.12862411
195	0xbe8c9a32	-0.27461392
196	0xbdb2d50e	-0.08732043
197	0x3e746312	0.23865917
198	0x3ea599f9	0.32344034
199	0xbd233d89	-0.039853606
200	0x3d860986	0.06544785
201	0x3eb560f8	0.35425544
202	0x3ee0b00a	0.43884307
203	0x3e8a9824	0.270692
204	0xbe141443	-0.14460854
205	0x3e28300f	0.16424583
206	0x3da29ce7	0.07940083
207	0xbe91343b	-0.2836016
208	0xbd7829d9	-0.060586784
209	0xbddf27e7	-0.10896283
210	0x3e992bd8	0.29916263
211	0x3cefd802	0.029277805
212	0xbe270001	-0.16308595
213	0x3cc1bb92	0.02364901
214	0x3e4cf6e3	0.20016055
215	0xbe03dfd1	-0.12878348
216	0xbc8f9f58	-0.017532036
217	0xbed76f01	-0.42076877
218	0x3e180f9f	0.14849709
219	0xbd8dc8f9	-0.06923098
220	0x3d79cec4	0.060988203
221	0xbf2b329d	-0.66874105
222	0x3e362e42	0.17791083
223	0x3c04b036	0.008098653
224	0x3d8c2b95	0.0684425
225	0x3d55806a	0.05212442
226	0x3e021983	0.12705044
227	0xbbf5175e	-0.007479592
228	0xbd183df0	-0.037168443
229	0xbd301f3e	-0.042998545
230	0x3d352890	0.044228137
231	0x3d864823	0.06556728
232	0x3d3fe935	0.046853263
233	0xbe3b3d53	-0.18285112
234	0xbcbe1c88	-0.023206964
235	0xbc2db526	-0.010602271
236	0x3d8131a0	0.06308293
237	0xbe69e06f	-0.22839521
238	0x3d13b249	0.036058698
239	0xbe03559a	-0.12825623
240	0xbcb9fbc9	-0.022703068
241	0xbd1bdb39	-0.038050864
242	0xbd26fa75	-0.0407662
243	0xbdbc39de	-0.09190725
244	0x3d181fbe	0.037139647
245	0xbc9cbfec	-0.019134484
246	0xbe085cfa	-0.13316718
247	0xbdc57a30	-0.09642446
248	0x3cb0c4cb	0.021578213
249	0xbd826951	-0.06367744
250	0xbe3b0366	-0.18263015
251	0xbdc1d26b	-0.09463962
252	0x3e2550d2	0.16144112
253	0xbe9c7c98	-0.30563807
254	0xbeb34618	-0.35014415
255	0xbc5d471a	-0.013505721
